…
224', model_ema=True, model_ema_decay=0.99996, model_ema_force_cpu=False, momentum=0.9, num_workers=10, opt='adamw', opt_betas=None, opt_eps=1e-08, output_dir='/scratch/cluster/cygong/vision_transformer_multimlp_coefficient', patience_epochs=10, pin_mem=True, rank=0, recount=1, remode='pixel', repeated_aug=True, reprob=0.25, resplit=False, resume='', sched='cosine', seed=0, smoothing=0.1, start_epoch=0, train_interpolation='bicubic', warmup_epochs=5, warmup_lr=1e-06, weight_decay=0.05, world_size=4)
Creating model: deit_tiny_patch16_224
VisionTransformer(
  (patch_embed): PatchEmbed(
    (proj): Conv2d(3, 192, kernel_size=(16, 16), stride=(16, 16))
  )
  (pos_drop): Dropout(p=0.0, inplace=False)
  (blocks): ModuleList(
    (0): Block(
      (norm1): LayerNorm((192,), eps=1e-06, elementwise_affine=True)
      (attn): Attention(
        (qkv): Linear(in_features=192, out_features=576, bias=True)
        (attn_drop): Dropout(p=0.0, inplace=False)
        (proj): Linear(in_features=192, out_features=192, bias=True)
        (proj_drop): Dropout(p=0.0, inplace=False)
      )
      (drop_path): Identity()
      (norm2): LayerNorm((192,), eps=1e-06, elementwise_affine=True)
      (mlp): Mlp(
        (fc1): Linear(in_features=192, out_features=768, bias=True)
        (act): GELU()
        (fc2): Linear(in_features=768, out_features=192, bias=True)
        (drop): Dropout(p=0.0, inplace=False)
      )
      (norm_post): LayerNorm((192,), eps=1e-06, elementwise_affine=True)
      (conv): Conv2d(192, 192, kernel_size=(3, 3), stride=(1, 1), padding=(1, 1), groups=192)
    )
    (1): Block(
      (norm1): LayerNorm((192,), eps=1e-06, elementwise_affine=True)
      (attn): Attention(
        (qkv): Linear(in_features=192, out_features=576, bias=True)
        (attn_drop): Dropout(p=0.0, inplace=False)
        (proj): Linear(in_features=192, out_features=192, bias=True)
        (proj_drop): Dropout(p=0.0, inplace=False)
      )
      (drop_path): DropPath()
      (norm2): LayerNorm((192,), eps=1e-06, elementwise_affine=True)
      (mlp): Mlp(
        (fc1): Linear(in_features=192, out_features=768, bias=True)
        (act): GELU()
        (fc2): Linear(in_features=768, out_features=192, bias=True)
        (drop): Dropout(p=0.0, inplace=False)
      )
      (norm_post): LayerNorm((192,), eps=1e-06, elementwise_affine=True)
      (conv): Conv2d(192, 192, kernel_size=(3, 3), stride=(1, 1), padding=(1, 1), groups=192)
    )
    (2): Block(
      (norm1): LayerNorm((192,), eps=1e-06, elementwise_affine=True)
      (attn): Attention(
        (qkv): Linear(in_features=192, out_features=576, bias=True)
        (attn_drop): Dropout(p=0.0, inplace=False)
        (proj): Linear(in_features=192, out_features=192, bias=True)
        (proj_drop): Dropout(p=0.0, inplace=False)
      )
      (drop_path): DropPath()
      (norm2): LayerNorm((192,), eps=1e-06, elementwise_affine=True)
      (mlp): Mlp(
        (fc1): Linear(in_features=192, out_features=768, bias=True)
        (act): GELU()
        (fc2): Linear(in_features=768, out_features=192, bias=True)
        (drop): Dropout(p=0.0, inplace=False)
      )
      (norm_post): LayerNorm((192,), eps=1e-06, elementwise_affine=True)
      (conv): Conv2d(192, 192, kernel_size=(3, 3), stride=(1, 1), padding=(1, 1), groups=192)
    )
    (3): Block(
      (norm1): LayerNorm((192,), eps=1e-06, elementwise_affine=True)
      (attn): Attention(
        (qkv): Linear(in_features=192, out_features=576, bias=True)
        (attn_drop): Dropout(p=0.0, inplace=False)
        (proj): Linear(in_features=192, out_features=192, bias=True)
        (proj_drop): Dropout(p=0.0, inplace=False)
      )
      (drop_path): DropPath()
      (norm2): LayerNorm((192,), eps=1e-06, elementwise_affine=True)
      (mlp): Mlp(
        (fc1): Linear(in_features=192, out_features=768, bias=True)
        (act): GELU()
        (fc2): Linear(in_features=768, out_features=192, bias=True)
        (drop): Dropout(p=0.0, inplace=False)
      )
      (norm_post): LayerNorm((192,), eps=1e-06, elementwise_affine=True)
      (conv): Conv2d(192, 192, kernel_size=(3, 3), stride=(1, 1), padding=(1, 1), groups=192)
    )
    (4): Block(
      (norm1): LayerNorm((192,), eps=1e-06, elementwise_affine=True)
      (attn): Attention(
        (qkv): Linear(in_features=192, out_features=576, bias=True)
        (attn_drop): Dropout(p=0.0, inplace=False)
        (proj): Linear(in_features=192, out_features=192, bias=True)
        (proj_drop): Dropout(p=0.0, inplace=False)
      )
      (drop_path): DropPath()
      (norm2): LayerNorm((192,), eps=1e-06, elementwise_affine=True)
      (mlp): Mlp(
        (fc1): Linear(in_features=192, out_features=768, bias=True)
        (act): GELU()
        (fc2): Linear(in_features=768, out_features=192, bias=True)
        (drop): Dropout(p=0.0, inplace=False)
      )
      (norm_post): LayerNorm((192,), eps=1e-06, elementwise_affine=True)
      (conv): Conv2d(192, 192, kernel_size=(3, 3), stride=(1, 1), padding=(1, 1), groups=192)
    )
    (5): Block(
      (norm1): LayerNorm((192,), eps=1e-06, elementwise_affine=True)
      (attn): Attention(
        (qkv): Linear(in_features=192, out_features=576, bias=True)
        (attn_drop): Dropout(p=0.0, inplace=False)
        (proj): Linear(in_features=192, out_features=192, bias=True)
        (proj_drop): Dropout(p=0.0, inplace=False)
      )
      (drop_path): DropPath()
      (norm2): LayerNorm((192,), eps=1e-06, elementwise_affine=True)
      (mlp): Mlp(
        (fc1): Linear(in_features=192, out_features=768, bias=True)
        (act): GELU()
        (fc2): Linear(in_features=768, out_features=192, bias=True)
        (drop): Dropout(p=0.0, inplace=False)
      )
      (norm_post): LayerNorm((192,), eps=1e-06, elementwise_affine=True)
      (conv): Conv2d(192, 192, kernel_size=(3, 3), stride=(1, 1), padding=(1, 1), groups=192)
    )
    (6): Block(
      (norm1): LayerNorm((192,), eps=1e-06, elementwise_affine=True)
      (attn): Attention(
        (qkv): Linear(in_features=192, out_features=576, bias=True)
        (attn_drop): Dropout(p=0.0, inplace=False)
        (proj): Linear(in_features=192, out_features=192, bias=True)
        (proj_drop): Dropout(p=0.0, inplace=False)
      )
      (drop_path): DropPath()
      (norm2): LayerNorm((192,), eps=1e-06, elementwise_affine=True)
      (mlp): Mlp(
        (fc1): Linear(in_features=192, out_features=768, bias=True)
        (act): GELU()
        (fc2): Linear(in_features=768, out_features=192, bias=True)
        (drop): Dropout(p=0.0, inplace=False)
      )
      (norm_post): LayerNorm((192,), eps=1e-06, elementwise_affine=True)
      (conv): Conv2d(192, 192, kernel_size=(3, 3), stride=(1, 1), padding=(1, 1), groups=192)
    )
    (7): Block(
      (norm1): LayerNorm((192,), eps=1e-06, elementwise_affine=True)
      (attn): Attention(
        (qkv): Linear(in_features=192, out_features=576, bias=True)
        (attn_drop): Dropout(p=0.0, inplace=False)
        (proj): Linear(in_features=192, out_features=192, bias=True)
        (proj_drop): Dropout(p=0.0, inplace=False)
      )
      (drop_path): DropPath()
      (norm2): LayerNorm((192,), eps=1e-06, elementwise_affine=True)
      (mlp): Mlp(
        (fc1): Linear(in_features=192, out_features=768, bias=True)
        (act): GELU()
        (fc2): Linear(in_features=768, out_features=192, bias=True)
        (drop): Dropout(p=0.0, inplace=False)
      )
      (norm_post): LayerNorm((192,), eps=1e-06, elementwise_affine=True)
      (conv): Conv2d(192, 192, kernel_size=(3, 3), stride=(1, 1), padding=(1, 1), groups=192)
    )
    (8): Block(
      (norm1): LayerNorm((192,), eps=1e-06, elementwise_affine=True)
      (attn): Attention(
        (qkv): Linear(in_features=192, out_features=576, bias=True)
        (attn_drop): Dropout(p=0.0, inplace=False)
        (proj): Linear(in_features=192, out_features=192, bias=True)
        (proj_drop): Dropout(p=0.0, inplace=False)
      )
      (drop_path): DropPath()
      (norm2): LayerNorm((192,), eps=1e-06, elementwise_affine=True)
      (mlp): Mlp(
        (fc1): Linear(in_features=192, out_features=768, bias=True)
        (act): GELU()
        (fc2): Linear(in_features=768, out_features=192, bias=True)
        (drop): Dropout(p=0.0, inplace=False)
      )
      (norm_post): LayerNorm((192,), eps=1e-06, elementwise_affine=True)
      (conv): Conv2d(192, 192, kernel_size=(3, 3), stride=(1, 1), padding=(1, 1), groups=192)
    )
    (9): Block(
      (norm1): LayerNorm((192,), eps=1e-06, elementwise_affine=True)
      (attn): Attention(
        (qkv): Linear(in_features=192, out_features=576, bias=True)
        (attn_drop): Dropout(p=0.0, inplace=False)
        (proj): Linear(in_features=192, out_features=192, bias=True)
        (proj_drop): Dropout(p=0.0, inplace=False)
      )
      (drop_path): DropPath()
      (norm2): LayerNorm((192,), eps=1e-06, elementwise_affine=True)
      (mlp): Mlp(
        (fc1): Linear(in_features=192, out_features=768, bias=True)
        (act): GELU()
        (fc2): Linear(in_features=768, out_features=192, bias=True)
        (drop): Dropout(p=0.0, inplace=False)
      )
      (norm_post): LayerNorm((192,), eps=1e-06, elementwise_affine=True)
      (conv): Conv2d(192, 192, kernel_size=(3, 3), stride=(1, 1), padding=(1, 1), groups=192)
    )
    (10): Block(
      (norm1): LayerNorm((192,), eps=1e-06, elementwise_affine=True)
      (attn): Attention(
        (qkv): Linear(in_features=192, out_features=576, bias=True)
        (attn_drop): Dropout(p=0.0, inplace=False)
        (proj): Linear(in_features=192, out_features=192, bias=True)
        (proj_drop): Dropout(p=0.0, inplace=False)
      )
      (drop_path): DropPath()
      (norm2): LayerNorm((192,), eps=1e-06, elementwise_affine=True)
      (mlp): Mlp(
        (fc1): Linear(in_features=192, out_features=768, bias=True)
        (act): GELU()
        (fc2): Linear(in_features=768, out_features=192, bias=True)
        (drop): Dropout(p=0.0, inplace=False)
      )
      (norm_post): LayerNorm((192,), eps=1e-06, elementwise_affine=True)
      (conv): Conv2d(192, 192, kernel_size=(3, 3), stride=(1, 1), padding=(1, 1), groups=192)
    )
    (11): Block(
      (norm1): LayerNorm((192,), eps=1e-06, elementwise_affine=True)
      (attn): Attention(
        (qkv): Linear(in_features=192, out_features=576, bias=True)
        (attn_drop): Dropout(p=0.0, inplace=False)
        (proj): Linear(in_features=192, out_features=192, bias=True)
        (proj_drop): Dropout(p=0.0, inplace=False)
      )
      (drop_path): DropPath()
      (norm2): LayerNorm((192,), eps=1e-06, elementwise_affine=True)
      (mlp): Mlp(
        (fc1): Linear(in_features=192, out_features=768, bias=True)
        (act): GELU()
        (fc2): Linear(in_features=768, out_features=192, bias=True)
        (drop): Dropout(p=0.0, inplace=False)
      )
      (norm_post): LayerNorm((192,), eps=1e-06, elementwise_affine=True)
      (conv): Conv2d(192, 192, kernel_size=(3, 3), stride=(1, 1), padding=(1, 1), groups=192)
    )
  )
  (norm): LayerNorm((192,), eps=1e-06, elementwise_affine=True)
  (head): Linear(in_features=192, out_features=1000, bias=True)
)
number of params: 5745064
4
Start training
Epoch: [0]  [  0/800]  eta: 3:56:03  lr: 0.000001  loss: 6.9496 (6.9496)  time: 17.7046  data: 7.7326  max mem: 29349
Epoch: [0]  [100/800]  eta: 0:15:01  lr: 0.000001  loss: 6.9421 (6.9440)  time: 1.1170  data: 0.0003  max mem: 29414
Epoch: [0]  [200/800]  eta: 0:12:01  lr: 0.000001  loss: 6.9376 (6.9418)  time: 1.1119  data: 0.0004  max mem: 29414
…
