…
6_224', model_ema=True, model_ema_decay=0.99996, model_ema_force_cpu=False, momentum=0.9, num_workers=10, opt='adamw', opt_betas=None, opt_eps=1e-08, output_dir='/scratch/cluster/cygong/vision_transformer_small_coefficient', patience_epochs=10, pin_mem=True, rank=0, recount=1, remode='pixel', repeated_aug=True, reprob=0.25, resplit=False, resume='', sched='cosine', seed=0, smoothing=0.1, start_epoch=0, train_interpolation='bicubic', warmup_epochs=5, warmup_lr=1e-06, weight_decay=0.05, world_size=4)
Creating model: deit_small_patch16_224
VisionTransformer(
  (patch_embed): PatchEmbed(
    (proj): Conv2d(3, 384, kernel_size=(16, 16), stride=(16, 16))
  )
  (pos_drop): Dropout(p=0.0, inplace=False)
  (blocks): ModuleList(
    (0): Block(
      (norm1): LayerNorm((384,), eps=1e-06, elementwise_affine=True)
      (attn): Attention(
        (qkv): Linear(in_features=384, out_features=1152, bias=True)
        (attn_drop): Dropout(p=0.0, inplace=False)
        (proj): Linear(in_features=384, out_features=384, bias=True)
        (proj_drop): Dropout(p=0.0, inplace=False)
      )
      (drop_path): Identity()
      (norm2): LayerNorm((384,), eps=1e-06, elementwise_affine=True)
      (mlp): Mlp(
        (fc1): Linear(in_features=384, out_features=384, bias=True)
        (act): GELU()
        (fc2): Linear(in_features=384, out_features=384, bias=True)
        (drop): Dropout(p=0.0, inplace=False)
      )
      (norm_post): LayerNorm((384,), eps=1e-06, elementwise_affine=True)
      (mlp1): Mlp(
        (fc1): Linear(in_features=384, out_features=384, bias=True)
        (act): GELU()
        (fc2): Linear(in_features=384, out_features=384, bias=True)
        (drop): Dropout(p=0.0, inplace=False)
      )
      (norm_pre1): LayerNorm((384,), eps=1e-06, elementwise_affine=True)
      (mlp2): Mlp(
        (fc1): Linear(in_features=384, out_features=384, bias=True)
        (act): GELU()
        (fc2): Linear(in_features=384, out_features=384, bias=True)
        (drop): Dropout(p=0.0, inplace=False)
      )
      (norm_pre2): LayerNorm((384,), eps=1e-06, elementwise_affine=True)
      (mlp3): Mlp(
        (fc1): Linear(in_features=384, out_features=384, bias=True)
        (act): GELU()
        (fc2): Linear(in_features=384, out_features=384, bias=True)
        (drop): Dropout(p=0.0, inplace=False)
      )
      (norm_pre3): LayerNorm((384,), eps=1e-06, elementwise_affine=True)
      (conv): Conv2d(384, 384, kernel_size=(3, 3), stride=(1, 1), padding=(1, 1), groups=384)
    )
    (1): Block(
      (norm1): LayerNorm((384,), eps=1e-06, elementwise_affine=True)
      (attn): Attention(
        (qkv): Linear(in_features=384, out_features=1152, bias=True)
        (attn_drop): Dropout(p=0.0, inplace=False)
        (proj): Linear(in_features=384, out_features=384, bias=True)
        (proj_drop): Dropout(p=0.0, inplace=False)
      )
      (drop_path): DropPath()
      (norm2): LayerNorm((384,), eps=1e-06, elementwise_affine=True)
      (mlp): Mlp(
        (fc1): Linear(in_features=384, out_features=384, bias=True)
        (act): GELU()
        (fc2): Linear(in_features=384, out_features=384, bias=True)
        (drop): Dropout(p=0.0, inplace=False)
      )
      (norm_post): LayerNorm((384,), eps=1e-06, elementwise_affine=True)
      (mlp1): Mlp(
        (fc1): Linear(in_features=384, out_features=384, bias=True)
        (act): GELU()
        (fc2): Linear(in_features=384, out_features=384, bias=True)
        (drop): Dropout(p=0.0, inplace=False)
      )
      (norm_pre1): LayerNorm((384,), eps=1e-06, elementwise_affine=True)
      (mlp2): Mlp(
        (fc1): Linear(in_features=384, out_features=384, bias=True)
        (act): GELU()
        (fc2): Linear(in_features=384, out_features=384, bias=True)
        (drop): Dropout(p=0.0, inplace=False)
      )
      (norm_pre2): LayerNorm((384,), eps=1e-06, elementwise_affine=True)
      (mlp3): Mlp(
        (fc1): Linear(in_features=384, out_features=384, bias=True)
        (act): GELU()
        (fc2): Linear(in_features=384, out_features=384, bias=True)
        (drop): Dropout(p=0.0, inplace=False)
      )
      (norm_pre3): LayerNorm((384,), eps=1e-06, elementwise_affine=True)
      (conv): Conv2d(384, 384, kernel_size=(3, 3), stride=(1, 1), padding=(1, 1), groups=384)
    )
    (2): Block(
      (norm1): LayerNorm((384,), eps=1e-06, elementwise_affine=True)
      (attn): Attention(
        (qkv): Linear(in_features=384, out_features=1152, bias=True)
        (attn_drop): Dropout(p=0.0, inplace=False)
        (proj): Linear(in_features=384, out_features=384, bias=True)
        (proj_drop): Dropout(p=0.0, inplace=False)
      )
      (drop_path): DropPath()
      (norm2): LayerNorm((384,), eps=1e-06, elementwise_affine=True)
      (mlp): Mlp(
        (fc1): Linear(in_features=384, out_features=384, bias=True)
        (act): GELU()
        (fc2): Linear(in_features=384, out_features=384, bias=True)
        (drop): Dropout(p=0.0, inplace=False)
      )
      (norm_post): LayerNorm((384,), eps=1e-06, elementwise_affine=True)
      (mlp1): Mlp(
        (fc1): Linear(in_features=384, out_features=384, bias=True)
        (act): GELU()
        (fc2): Linear(in_features=384, out_features=384, bias=True)
        (drop): Dropout(p=0.0, inplace=False)
      )
      (norm_pre1): LayerNorm((384,), eps=1e-06, elementwise_affine=True)
      (mlp2): Mlp(
        (fc1): Linear(in_features=384, out_features=384, bias=True)
        (act): GELU()
        (fc2): Linear(in_features=384, out_features=384, bias=True)
        (drop): Dropout(p=0.0, inplace=False)
      )
      (norm_pre2): LayerNorm((384,), eps=1e-06, elementwise_affine=True)
      (mlp3): Mlp(
        (fc1): Linear(in_features=384, out_features=384, bias=True)
        (act): GELU()
        (fc2): Linear(in_features=384, out_features=384, bias=True)
        (drop): Dropout(p=0.0, inplace=False)
      )
      (norm_pre3): LayerNorm((384,), eps=1e-06, elementwise_affine=True)
      (conv): Conv2d(384, 384, kernel_size=(3, 3), stride=(1, 1), padding=(1, 1), groups=384)
    )
    (3): Block(
      (norm1): LayerNorm((384,), eps=1e-06, elementwise_affine=True)
      (attn): Attention(
        (qkv): Linear(in_features=384, out_features=1152, bias=True)
        (attn_drop): Dropout(p=0.0, inplace=False)
        (proj): Linear(in_features=384, out_features=384, bias=True)
        (proj_drop): Dropout(p=0.0, inplace=False)
      )
      (drop_path): DropPath()
      (norm2): LayerNorm((384,), eps=1e-06, elementwise_affine=True)
      (mlp): Mlp(
        (fc1): Linear(in_features=384, out_features=384, bias=True)
        (act): GELU()
        (fc2): Linear(in_features=384, out_features=384, bias=True)
        (drop): Dropout(p=0.0, inplace=False)
      )
      (norm_post): LayerNorm((384,), eps=1e-06, elementwise_affine=True)
      (mlp1): Mlp(
        (fc1): Linear(in_features=384, out_features=384, bias=True)
        (act): GELU()
        (fc2): Linear(in_features=384, out_features=384, bias=True)
        (drop): Dropout(p=0.0, inplace=False)
      )
      (norm_pre1): LayerNorm((384,), eps=1e-06, elementwise_affine=True)
      (mlp2): Mlp(
        (fc1): Linear(in_features=384, out_features=384, bias=True)
        (act): GELU()
        (fc2): Linear(in_features=384, out_features=384, bias=True)
        (drop): Dropout(p=0.0, inplace=False)
      )
      (norm_pre2): LayerNorm((384,), eps=1e-06, elementwise_affine=True)
      (mlp3): Mlp(
        (fc1): Linear(in_features=384, out_features=384, bias=True)
        (act): GELU()
        (fc2): Linear(in_features=384, out_features=384, bias=True)
        (drop): Dropout(p=0.0, inplace=False)
      )
      (norm_pre3): LayerNorm((384,), eps=1e-06, elementwise_affine=True)
      (conv): Conv2d(384, 384, kernel_size=(3, 3), stride=(1, 1), padding=(1, 1), groups=384)
    )
    (4): Block(
      (norm1): LayerNorm((384,), eps=1e-06, elementwise_affine=True)
      (attn): Attention(
        (qkv): Linear(in_features=384, out_features=1152, bias=True)
        (attn_drop): Dropout(p=0.0, inplace=False)
        (proj): Linear(in_features=384, out_features=384, bias=True)
        (proj_drop): Dropout(p=0.0, inplace=False)
      )
      (drop_path): DropPath()
      (norm2): LayerNorm((384,), eps=1e-06, elementwise_affine=True)
      (mlp): Mlp(
        (fc1): Linear(in_features=384, out_features=384, bias=True)
        (act): GELU()
        (fc2): Linear(in_features=384, out_features=384, bias=True)
        (drop): Dropout(p=0.0, inplace=False)
      )
      (norm_post): LayerNorm((384,), eps=1e-06, elementwise_affine=True)
      (mlp1): Mlp(
        (fc1): Linear(in_features=384, out_features=384, bias=True)
        (act): GELU()
        (fc2): Linear(in_features=384, out_features=384, bias=True)
        (drop): Dropout(p=0.0, inplace=False)
      )
      (norm_pre1): LayerNorm((384,), eps=1e-06, elementwise_affine=True)
      (mlp2): Mlp(
        (fc1): Linear(in_features=384, out_features=384, bias=True)
        (act): GELU()
        (fc2): Linear(in_features=384, out_features=384, bias=True)
        (drop): Dropout(p=0.0, inplace=False)
      )
      (norm_pre2): LayerNorm((384,), eps=1e-06, elementwise_affine=True)
      (mlp3): Mlp(
        (fc1): Linear(in_features=384, out_features=384, bias=True)
        (act): GELU()
        (fc2): Linear(in_features=384, out_features=384, bias=True)
        (drop): Dropout(p=0.0, inplace=False)
      )
      (norm_pre3): LayerNorm((384,), eps=1e-06, elementwise_affine=True)
      (conv): Conv2d(384, 384, kernel_size=(3, 3), stride=(1, 1), padding=(1, 1), groups=384)
    )
    (5): Block(
      (norm1): LayerNorm((384,), eps=1e-06, elementwise_affine=True)
      (attn): Attention(
        (qkv): Linear(in_features=384, out_features=1152, bias=True)
        (attn_drop): Dropout(p=0.0, inplace=False)
        (proj): Linear(in_features=384, out_features=384, bias=True)
        (proj_drop): Dropout(p=0.0, inplace=False)
      )
      (drop_path): DropPath()
      (norm2): LayerNorm((384,), eps=1e-06, elementwise_affine=True)
      (mlp): Mlp(
        (fc1): Linear(in_features=384, out_features=384, bias=True)
        (act): GELU()
        (fc2): Linear(in_features=384, out_features=384, bias=True)
        (drop): Dropout(p=0.0, inplace=False)
      )
      (norm_post): LayerNorm((384,), eps=1e-06, elementwise_affine=True)
      (mlp1): Mlp(
        (fc1): Linear(in_features=384, out_features=384, bias=True)
        (act): GELU()
        (fc2): Linear(in_features=384, out_features=384, bias=True)
        (drop): Dropout(p=0.0, inplace=False)
      )
      (norm_pre1): LayerNorm((384,), eps=1e-06, elementwise_affine=True)
      (mlp2): Mlp(
        (fc1): Linear(in_features=384, out_features=384, bias=True)
        (act): GELU()
        (fc2): Linear(in_features=384, out_features=384, bias=True)
        (drop): Dropout(p=0.0, inplace=False)
      )
      (norm_pre2): LayerNorm((384,), eps=1e-06, elementwise_affine=True)
      (mlp3): Mlp(
        (fc1): Linear(in_features=384, out_features=384, bias=True)
        (act): GELU()
        (fc2): Linear(in_features=384, out_features=384, bias=True)
        (drop): Dropout(p=0.0, inplace=False)
      )
      (norm_pre3): LayerNorm((384,), eps=1e-06, elementwise_affine=True)
      (conv): Conv2d(384, 384, kernel_size=(3, 3), stride=(1, 1), padding=(1, 1), groups=384)
    )
    (6): Block(
      (norm1): LayerNorm((384,), eps=1e-06, elementwise_affine=True)
      (attn): Attention(
        (qkv): Linear(in_features=384, out_features=1152, bias=True)
        (attn_drop): Dropout(p=0.0, inplace=False)
        (proj): Linear(in_features=384, out_features=384, bias=True)
        (proj_drop): Dropout(p=0.0, inplace=False)
      )
      (drop_path): DropPath()
      (norm2): LayerNorm((384,), eps=1e-06, elementwise_affine=True)
      (mlp): Mlp(
        (fc1): Linear(in_features=384, out_features=384, bias=True)
        (act): GELU()
        (fc2): Linear(in_features=384, out_features=384, bias=True)
        (drop): Dropout(p=0.0, inplace=False)
      )
      (norm_post): LayerNorm((384,), eps=1e-06, elementwise_affine=True)
      (mlp1): Mlp(
        (fc1): Linear(in_features=384, out_features=384, bias=True)
        (act): GELU()
        (fc2): Linear(in_features=384, out_features=384, bias=True)
        (drop): Dropout(p=0.0, inplace=False)
      )
      (norm_pre1): LayerNorm((384,), eps=1e-06, elementwise_affine=True)
      (mlp2): Mlp(
        (fc1): Linear(in_features=384, out_features=384, bias=True)
        (act): GELU()
        (fc2): Linear(in_features=384, out_features=384, bias=True)
        (drop): Dropout(p=0.0, inplace=False)
      )
      (norm_pre2): LayerNorm((384,), eps=1e-06, elementwise_affine=True)
      (mlp3): Mlp(
        (fc1): Linear(in_features=384, out_features=384, bias=True)
        (act): GELU()
        (fc2): Linear(in_features=384, out_features=384, bias=True)
        (drop): Dropout(p=0.0, inplace=False)
      )
      (norm_pre3): LayerNorm((384,), eps=1e-06, elementwise_affine=True)
      (conv): Conv2d(384, 384, kernel_size=(3, 3), stride=(1, 1), padding=(1, 1), groups=384)
    )
    (7): Block(
      (norm1): LayerNorm((384,), eps=1e-06, elementwise_affine=True)
      (attn): Attention(
        (qkv): Linear(in_features=384, out_features=1152, bias=True)
        (attn_drop): Dropout(p=0.0, inplace=False)
        (proj): Linear(in_features=384, out_features=384, bias=True)
        (proj_drop): Dropout(p=0.0, inplace=False)
      )
      (drop_path): DropPath()
      (norm2): LayerNorm((384,), eps=1e-06, elementwise_affine=True)
      (mlp): Mlp(
        (fc1): Linear(in_features=384, out_features=384, bias=True)
        (act): GELU()
        (fc2): Linear(in_features=384, out_features=384, bias=True)
        (drop): Dropout(p=0.0, inplace=False)
      )
      (norm_post): LayerNorm((384,), eps=1e-06, elementwise_affine=True)
      (mlp1): Mlp(
        (fc1): Linear(in_features=384, out_features=384, bias=True)
        (act): GELU()
        (fc2): Linear(in_features=384, out_features=384, bias=True)
        (drop): Dropout(p=0.0, inplace=False)
      )
      (norm_pre1): LayerNorm((384,), eps=1e-06, elementwise_affine=True)
      (mlp2): Mlp(
        (fc1): Linear(in_features=384, out_features=384, bias=True)
        (act): GELU()
        (fc2): Linear(in_features=384, out_features=384, bias=True)
        (drop): Dropout(p=0.0, inplace=False)
      )
      (norm_pre2): LayerNorm((384,), eps=1e-06, elementwise_affine=True)
      (mlp3): Mlp(
        (fc1): Linear(in_features=384, out_features=384, bias=True)
        (act): GELU()
        (fc2): Linear(in_features=384, out_features=384, bias=True)
        (drop): Dropout(p=0.0, inplace=False)
      )
      (norm_pre3): LayerNorm((384,), eps=1e-06, elementwise_affine=True)
      (conv): Conv2d(384, 384, kernel_size=(3, 3), stride=(1, 1), padding=(1, 1), groups=384)
    )
    (8): Block(
      (norm1): LayerNorm((384,), eps=1e-06, elementwise_affine=True)
      (attn): Attention(
        (qkv): Linear(in_features=384, out_features=1152, bias=True)
        (attn_drop): Dropout(p=0.0, inplace=False)
        (proj): Linear(in_features=384, out_features=384, bias=True)
        (proj_drop): Dropout(p=0.0, inplace=False)
      )
      (drop_path): DropPath()
      (norm2): LayerNorm((384,), eps=1e-06, elementwise_affine=True)
      (mlp): Mlp(
        (fc1): Linear(in_features=384, out_features=384, bias=True)
        (act): GELU()
        (fc2): Linear(in_features=384, out_features=384, bias=True)
        (drop): Dropout(p=0.0, inplace=False)
      )
      (norm_post): LayerNorm((384,), eps=1e-06, elementwise_affine=True)
      (mlp1): Mlp(
        (fc1): Linear(in_features=384, out_features=384, bias=True)
        (act): GELU()
        (fc2): Linear(in_features=384, out_features=384, bias=True)
        (drop): Dropout(p=0.0, inplace=False)
      )
      (norm_pre1): LayerNorm((384,), eps=1e-06, elementwise_affine=True)
      (mlp2): Mlp(
        (fc1): Linear(in_features=384, out_features=384, bias=True)
        (act): GELU()
        (fc2): Linear(in_features=384, out_features=384, bias=True)
        (drop): Dropout(p=0.0, inplace=False)
      )
      (norm_pre2): LayerNorm((384,), eps=1e-06, elementwise_affine=True)
      (mlp3): Mlp(
        (fc1): Linear(in_features=384, out_features=384, bias=True)
        (act): GELU()
        (fc2): Linear(in_features=384, out_features=384, bias=True)
        (drop): Dropout(p=0.0, inplace=False)
      )
      (norm_pre3): LayerNorm((384,), eps=1e-06, elementwise_affine=True)
      (conv): Conv2d(384, 384, kernel_size=(3, 3), stride=(1, 1), padding=(1, 1), groups=384)
    )
    (9): Block(
      (norm1): LayerNorm((384,), eps=1e-06, elementwise_affine=True)
      (attn): Attention(
        (qkv): Linear(in_features=384, out_features=1152, bias=True)
        (attn_drop): Dropout(p=0.0, inplace=False)
        (proj): Linear(in_features=384, out_features=384, bias=True)
        (proj_drop): Dropout(p=0.0, inplace=False)
      )
      (drop_path): DropPath()
      (norm2): LayerNorm((384,), eps=1e-06, elementwise_affine=True)
      (mlp): Mlp(
        (fc1): Linear(in_features=384, out_features=384, bias=True)
        (act): GELU()
        (fc2): Linear(in_features=384, out_features=384, bias=True)
        (drop): Dropout(p=0.0, inplace=False)
      )
      (norm_post): LayerNorm((384,), eps=1e-06, elementwise_affine=True)
      (mlp1): Mlp(
        (fc1): Linear(in_features=384, out_features=384, bias=True)
        (act): GELU()
        (fc2): Linear(in_features=384, out_features=384, bias=True)
        (drop): Dropout(p=0.0, inplace=False)
      )
      (norm_pre1): LayerNorm((384,), eps=1e-06, elementwise_affine=True)
      (mlp2): Mlp(
        (fc1): Linear(in_features=384, out_features=384, bias=True)
        (act): GELU()
        (fc2): Linear(in_features=384, out_features=384, bias=True)
        (drop): Dropout(p=0.0, inplace=False)
      )
      (norm_pre2): LayerNorm((384,), eps=1e-06, elementwise_affine=True)
      (mlp3): Mlp(
        (fc1): Linear(in_features=384, out_features=384, bias=True)
        (act): GELU()
        (fc2): Linear(in_features=384, out_features=384, bias=True)
        (drop): Dropout(p=0.0, inplace=False)
      )
      (norm_pre3): LayerNorm((384,), eps=1e-06, elementwise_affine=True)
      (conv): Conv2d(384, 384, kernel_size=(3, 3), stride=(1, 1), padding=(1, 1), groups=384)
    )
    (10): Block(
      (norm1): LayerNorm((384,), eps=1e-06, elementwise_affine=True)
      (attn): Attention(
        (qkv): Linear(in_features=384, out_features=1152, bias=True)
        (attn_drop): Dropout(p=0.0, inplace=False)
        (proj): Linear(in_features=384, out_features=384, bias=True)
        (proj_drop): Dropout(p=0.0, inplace=False)
      )
      (drop_path): DropPath()
      (norm2): LayerNorm((384,), eps=1e-06, elementwise_affine=True)
      (mlp): Mlp(
        (fc1): Linear(in_features=384, out_features=384, bias=True)
        (act): GELU()
        (fc2): Linear(in_features=384, out_features=384, bias=True)
        (drop): Dropout(p=0.0, inplace=False)
      )
      (norm_post): LayerNorm((384,), eps=1e-06, elementwise_affine=True)
      (mlp1): Mlp(
        (fc1): Linear(in_features=384, out_features=384, bias=True)
        (act): GELU()
        (fc2): Linear(in_features=384, out_features=384, bias=True)
        (drop): Dropout(p=0.0, inplace=False)
      )
      (norm_pre1): LayerNorm((384,), eps=1e-06, elementwise_affine=True)
      (mlp2): Mlp(
        (fc1): Linear(in_features=384, out_features=384, bias=True)
        (act): GELU()
        (fc2): Linear(in_features=384, out_features=384, bias=True)
        (drop): Dropout(p=0.0, inplace=False)
      )
      (norm_pre2): LayerNorm((384,), eps=1e-06, elementwise_affine=True)
      (mlp3): Mlp(
        (fc1): Linear(in_features=384, out_features=384, bias=True)
        (act): GELU()
        (fc2): Linear(in_features=384, out_features=384, bias=True)
        (drop): Dropout(p=0.0, inplace=False)
      )
      (norm_pre3): LayerNorm((384,), eps=1e-06, elementwise_affine=True)
      (conv): Conv2d(384, 384, kernel_size=(3, 3), stride=(1, 1), padding=(1, 1), groups=384)
    )
    (11): Block(
      (norm1): LayerNorm((384,), eps=1e-06, elementwise_affine=True)
      (attn): Attention(
        (qkv): Linear(in_features=384, out_features=1152, bias=True)
        (attn_drop): Dropout(p=0.0, inplace=False)
        (proj): Linear(in_features=384, out_features=384, bias=True)
        (proj_drop): Dropout(p=0.0, inplace=False)
      )
      (drop_path): DropPath()
      (norm2): LayerNorm((384,), eps=1e-06, elementwise_affine=True)
      (mlp): Mlp(
        (fc1): Linear(in_features=384, out_features=384, bias=True)
        (act): GELU()
        (fc2): Linear(in_features=384, out_features=384, bias=True)
        (drop): Dropout(p=0.0, inplace=False)
      )
      (norm_post): LayerNorm((384,), eps=1e-06, elementwise_affine=True)
      (mlp1): Mlp(
        (fc1): Linear(in_features=384, out_features=384, bias=True)
        (act): GELU()
        (fc2): Linear(in_features=384, out_features=384, bias=True)
        (drop): Dropout(p=0.0, inplace=False)
      )
      (norm_pre1): LayerNorm((384,), eps=1e-06, elementwise_affine=True)
      (mlp2): Mlp(
        (fc1): Linear(in_features=384, out_features=384, bias=True)
        (act): GELU()
        (fc2): Linear(in_features=384, out_features=384, bias=True)
        (drop): Dropout(p=0.0, inplace=False)
      )
      (norm_pre2): LayerNorm((384,), eps=1e-06, elementwise_affine=True)
      (mlp3): Mlp(
        (fc1): Linear(in_features=384, out_features=384, bias=True)
        (act): GELU()
        (fc2): Linear(in_features=384, out_features=384, bias=True)
        (drop): Dropout(p=0.0, inplace=False)
      )
      (norm_pre3): LayerNorm((384,), eps=1e-06, elementwise_affine=True)
      (conv): Conv2d(384, 384, kernel_size=(3, 3), stride=(1, 1), padding=(1, 1), groups=384)
    )
  )
  (norm): LayerNorm((384,), eps=1e-06, elementwise_affine=True)
  (head): Linear(in_features=384, out_features=1000, bias=True)
)
number of params: 22147432
4
Start training
Epoch: [0]  [  0/941]  eta: 3:33:36  lr: 0.000001  loss: 7.0038 (7.0038)  time: 13.6196  data: 7.8784  max mem: 28355
Epoch: [0]  [100/941]  eta: 0:21:03  lr: 0.000001  loss: 6.9772 (6.9819)  time: 1.3686  data: 0.0003  max mem: 28605
Epoch: [0]  [200/941]  eta: 0:17:46  lr: 0.000001  loss: 6.9524 (6.9734)  time: 1.3721  data: 0.0003  max mem: 28605
…
