…
 momentum=0.9, num_workers=10, opt='adamw', opt_betas=None, opt_eps=1e-08, output_dir='/scratch/cluster/cygong/vision_transformer_small_coefficient', patience_epochs=10, pin_mem=True, rank=0, recount=1, remode='pixel', repeated_aug=True, reprob=0.25, resplit=False, resume='/scratch/cluster/cygong/vision_transformer_small_coefficient/checkpoint.pth', sched='cosine', seed=0, smoothing=0.1, start_epoch=0, train_interpolation='bicubic', warmup_epochs=5, warmup_lr=1e-06, weight_decay=0.05, world_size=3)
Creating model: deit_small_patch16_224
VisionTransformer(
  (patch_embed): PatchEmbed(
    (proj): Conv2d(3, 384, kernel_size=(16, 16), stride=(16, 16))
  )
  (pos_drop): Dropout(p=0.0, inplace=False)
  (blocks): ModuleList(
    (0): Block(
      (norm1): LayerNorm((384,), eps=1e-06, elementwise_affine=True)
      (attn): Attention(
        (qkv): Linear(in_features=384, out_features=1152, bias=True)
        (attn_drop): Dropout(p=0.0, inplace=False)
        (proj): Linear(in_features=384, out_features=384, bias=True)
        (proj_drop): Dropout(p=0.0, inplace=False)
      )
      (drop_path): Identity()
      (norm2): LayerNorm((384,), eps=1e-06, elementwise_affine=True)
      (mlp): Mlp(
        (fc1): Linear(in_features=384, out_features=384, bias=True)
        (act): GELU()
        (fc2): Linear(in_features=384, out_features=384, bias=True)
        (drop): Dropout(p=0.0, inplace=False)
      )
      (norm_post): LayerNorm((384,), eps=1e-06, elementwise_affine=True)
      (mlp1): Mlp(
        (fc1): Linear(in_features=384, out_features=384, bias=True)
        (act): GELU()
        (fc2): Linear(in_features=384, out_features=384, bias=True)
        (drop): Dropout(p=0.0, inplace=False)
      )
      (norm_pre1): LayerNorm((384,), eps=1e-06, elementwise_affine=True)
      (mlp2): Mlp(
        (fc1): Linear(in_features=384, out_features=384, bias=True)
        (act): GELU()
        (fc2): Linear(in_features=384, out_features=384, bias=True)
        (drop): Dropout(p=0.0, inplace=False)
      )
      (norm_pre2): LayerNorm((384,), eps=1e-06, elementwise_affine=True)
      (mlp3): Mlp(
        (fc1): Linear(in_features=384, out_features=384, bias=True)
        (act): GELU()
        (fc2): Linear(in_features=384, out_features=384, bias=True)
        (drop): Dropout(p=0.0, inplace=False)
      )
      (norm_pre3): LayerNorm((384,), eps=1e-06, elementwise_affine=True)
      (conv): Conv2d(384, 384, kernel_size=(3, 3), stride=(1, 1), padding=(1, 1), groups=384)
    )
    (1): Block(
      (norm1): LayerNorm((384,), eps=1e-06, elementwise_affine=True)
      (attn): Attention(
        (qkv): Linear(in_features=384, out_features=1152, bias=True)
        (attn_drop): Dropout(p=0.0, inplace=False)
        (proj): Linear(in_features=384, out_features=384, bias=True)
        (proj_drop): Dropout(p=0.0, inplace=False)
      )
      (drop_path): DropPath()
      (norm2): LayerNorm((384,), eps=1e-06, elementwise_affine=True)
      (mlp): Mlp(
        (fc1): Linear(in_features=384, out_features=384, bias=True)
        (act): GELU()
        (fc2): Linear(in_features=384, out_features=384, bias=True)
        (drop): Dropout(p=0.0, inplace=False)
      )
      (norm_post): LayerNorm((384,), eps=1e-06, elementwise_affine=True)
      (mlp1): Mlp(
        (fc1): Linear(in_features=384, out_features=384, bias=True)
        (act): GELU()
        (fc2): Linear(in_features=384, out_features=384, bias=True)
        (drop): Dropout(p=0.0, inplace=False)
      )
      (norm_pre1): LayerNorm((384,), eps=1e-06, elementwise_affine=True)
      (mlp2): Mlp(
        (fc1): Linear(in_features=384, out_features=384, bias=True)
        (act): GELU()
        (fc2): Linear(in_features=384, out_features=384, bias=True)
        (drop): Dropout(p=0.0, inplace=False)
      )
      (norm_pre2): LayerNorm((384,), eps=1e-06, elementwise_affine=True)
      (mlp3): Mlp(
        (fc1): Linear(in_features=384, out_features=384, bias=True)
        (act): GELU()
        (fc2): Linear(in_features=384, out_features=384, bias=True)
        (drop): Dropout(p=0.0, inplace=False)
      )
      (norm_pre3): LayerNorm((384,), eps=1e-06, elementwise_affine=True)
      (conv): Conv2d(384, 384, kernel_size=(3, 3), stride=(1, 1), padding=(1, 1), groups=384)
    )
    (2): Block(
      (norm1): LayerNorm((384,), eps=1e-06, elementwise_affine=True)
      (attn): Attention(
        (qkv): Linear(in_features=384, out_features=1152, bias=True)
        (attn_drop): Dropout(p=0.0, inplace=False)
        (proj): Linear(in_features=384, out_features=384, bias=True)
        (proj_drop): Dropout(p=0.0, inplace=False)
      )
      (drop_path): DropPath()
      (norm2): LayerNorm((384,), eps=1e-06, elementwise_affine=True)
      (mlp): Mlp(
        (fc1): Linear(in_features=384, out_features=384, bias=True)
        (act): GELU()
        (fc2): Linear(in_features=384, out_features=384, bias=True)
        (drop): Dropout(p=0.0, inplace=False)
      )
      (norm_post): LayerNorm((384,), eps=1e-06, elementwise_affine=True)
      (mlp1): Mlp(
        (fc1): Linear(in_features=384, out_features=384, bias=True)
        (act): GELU()
        (fc2): Linear(in_features=384, out_features=384, bias=True)
        (drop): Dropout(p=0.0, inplace=False)
      )
      (norm_pre1): LayerNorm((384,), eps=1e-06, elementwise_affine=True)
      (mlp2): Mlp(
        (fc1): Linear(in_features=384, out_features=384, bias=True)
        (act): GELU()
        (fc2): Linear(in_features=384, out_features=384, bias=True)
        (drop): Dropout(p=0.0, inplace=False)
      )
      (norm_pre2): LayerNorm((384,), eps=1e-06, elementwise_affine=True)
      (mlp3): Mlp(
        (fc1): Linear(in_features=384, out_features=384, bias=True)
        (act): GELU()
        (fc2): Linear(in_features=384, out_features=384, bias=True)
        (drop): Dropout(p=0.0, inplace=False)
      )
      (norm_pre3): LayerNorm((384,), eps=1e-06, elementwise_affine=True)
      (conv): Conv2d(384, 384, kernel_size=(3, 3), stride=(1, 1), padding=(1, 1), groups=384)
    )
    (3): Block(
      (norm1): LayerNorm((384,), eps=1e-06, elementwise_affine=True)
      (attn): Attention(
        (qkv): Linear(in_features=384, out_features=1152, bias=True)
        (attn_drop): Dropout(p=0.0, inplace=False)
        (proj): Linear(in_features=384, out_features=384, bias=True)
        (proj_drop): Dropout(p=0.0, inplace=False)
      )
      (drop_path): DropPath()
      (norm2): LayerNorm((384,), eps=1e-06, elementwise_affine=True)
      (mlp): Mlp(
        (fc1): Linear(in_features=384, out_features=384, bias=True)
        (act): GELU()
        (fc2): Linear(in_features=384, out_features=384, bias=True)
        (drop): Dropout(p=0.0, inplace=False)
      )
      (norm_post): LayerNorm((384,), eps=1e-06, elementwise_affine=True)
      (mlp1): Mlp(
        (fc1): Linear(in_features=384, out_features=384, bias=True)
        (act): GELU()
        (fc2): Linear(in_features=384, out_features=384, bias=True)
        (drop): Dropout(p=0.0, inplace=False)
      )
      (norm_pre1): LayerNorm((384,), eps=1e-06, elementwise_affine=True)
      (mlp2): Mlp(
        (fc1): Linear(in_features=384, out_features=384, bias=True)
        (act): GELU()
        (fc2): Linear(in_features=384, out_features=384, bias=True)
        (drop): Dropout(p=0.0, inplace=False)
      )
      (norm_pre2): LayerNorm((384,), eps=1e-06, elementwise_affine=True)
      (mlp3): Mlp(
        (fc1): Linear(in_features=384, out_features=384, bias=True)
        (act): GELU()
        (fc2): Linear(in_features=384, out_features=384, bias=True)
        (drop): Dropout(p=0.0, inplace=False)
      )
      (norm_pre3): LayerNorm((384,), eps=1e-06, elementwise_affine=True)
      (conv): Conv2d(384, 384, kernel_size=(3, 3), stride=(1, 1), padding=(1, 1), groups=384)
    )
    (4): Block(
      (norm1): LayerNorm((384,), eps=1e-06, elementwise_affine=True)
      (attn): Attention(
        (qkv): Linear(in_features=384, out_features=1152, bias=True)
        (attn_drop): Dropout(p=0.0, inplace=False)
        (proj): Linear(in_features=384, out_features=384, bias=True)
        (proj_drop): Dropout(p=0.0, inplace=False)
      )
      (drop_path): DropPath()
      (norm2): LayerNorm((384,), eps=1e-06, elementwise_affine=True)
      (mlp): Mlp(
        (fc1): Linear(in_features=384, out_features=384, bias=True)
        (act): GELU()
        (fc2): Linear(in_features=384, out_features=384, bias=True)
        (drop): Dropout(p=0.0, inplace=False)
      )
      (norm_post): LayerNorm((384,), eps=1e-06, elementwise_affine=True)
      (mlp1): Mlp(
        (fc1): Linear(in_features=384, out_features=384, bias=True)
        (act): GELU()
        (fc2): Linear(in_features=384, out_features=384, bias=True)
        (drop): Dropout(p=0.0, inplace=False)
      )
      (norm_pre1): LayerNorm((384,), eps=1e-06, elementwise_affine=True)
      (mlp2): Mlp(
        (fc1): Linear(in_features=384, out_features=384, bias=True)
        (act): GELU()
        (fc2): Linear(in_features=384, out_features=384, bias=True)
        (drop): Dropout(p=0.0, inplace=False)
      )
      (norm_pre2): LayerNorm((384,), eps=1e-06, elementwise_affine=True)
      (mlp3): Mlp(
        (fc1): Linear(in_features=384, out_features=384, bias=True)
        (act): GELU()
        (fc2): Linear(in_features=384, out_features=384, bias=True)
        (drop): Dropout(p=0.0, inplace=False)
      )
      (norm_pre3): LayerNorm((384,), eps=1e-06, elementwise_affine=True)
      (conv): Conv2d(384, 384, kernel_size=(3, 3), stride=(1, 1), padding=(1, 1), groups=384)
    )
    (5): Block(
      (norm1): LayerNorm((384,), eps=1e-06, elementwise_affine=True)
      (attn): Attention(
        (qkv): Linear(in_features=384, out_features=1152, bias=True)
        (attn_drop): Dropout(p=0.0, inplace=False)
        (proj): Linear(in_features=384, out_features=384, bias=True)
        (proj_drop): Dropout(p=0.0, inplace=False)
      )
      (drop_path): DropPath()
      (norm2): LayerNorm((384,), eps=1e-06, elementwise_affine=True)
      (mlp): Mlp(
        (fc1): Linear(in_features=384, out_features=384, bias=True)
        (act): GELU()
        (fc2): Linear(in_features=384, out_features=384, bias=True)
        (drop): Dropout(p=0.0, inplace=False)
      )
      (norm_post): LayerNorm((384,), eps=1e-06, elementwise_affine=True)
      (mlp1): Mlp(
        (fc1): Linear(in_features=384, out_features=384, bias=True)
        (act): GELU()
        (fc2): Linear(in_features=384, out_features=384, bias=True)
        (drop): Dropout(p=0.0, inplace=False)
      )
      (norm_pre1): LayerNorm((384,), eps=1e-06, elementwise_affine=True)
      (mlp2): Mlp(
        (fc1): Linear(in_features=384, out_features=384, bias=True)
        (act): GELU()
        (fc2): Linear(in_features=384, out_features=384, bias=True)
        (drop): Dropout(p=0.0, inplace=False)
      )
      (norm_pre2): LayerNorm((384,), eps=1e-06, elementwise_affine=True)
      (mlp3): Mlp(
        (fc1): Linear(in_features=384, out_features=384, bias=True)
        (act): GELU()
        (fc2): Linear(in_features=384, out_features=384, bias=True)
        (drop): Dropout(p=0.0, inplace=False)
      )
      (norm_pre3): LayerNorm((384,), eps=1e-06, elementwise_affine=True)
      (conv): Conv2d(384, 384, kernel_size=(3, 3), stride=(1, 1), padding=(1, 1), groups=384)
    )
    (6): Block(
      (norm1): LayerNorm((384,), eps=1e-06, elementwise_affine=True)
      (attn): Attention(
        (qkv): Linear(in_features=384, out_features=1152, bias=True)
        (attn_drop): Dropout(p=0.0, inplace=False)
        (proj): Linear(in_features=384, out_features=384, bias=True)
        (proj_drop): Dropout(p=0.0, inplace=False)
      )
      (drop_path): DropPath()
      (norm2): LayerNorm((384,), eps=1e-06, elementwise_affine=True)
      (mlp): Mlp(
        (fc1): Linear(in_features=384, out_features=384, bias=True)
        (act): GELU()
        (fc2): Linear(in_features=384, out_features=384, bias=True)
        (drop): Dropout(p=0.0, inplace=False)
      )
      (norm_post): LayerNorm((384,), eps=1e-06, elementwise_affine=True)
      (mlp1): Mlp(
        (fc1): Linear(in_features=384, out_features=384, bias=True)
        (act): GELU()
        (fc2): Linear(in_features=384, out_features=384, bias=True)
        (drop): Dropout(p=0.0, inplace=False)
      )
      (norm_pre1): LayerNorm((384,), eps=1e-06, elementwise_affine=True)
      (mlp2): Mlp(
        (fc1): Linear(in_features=384, out_features=384, bias=True)
        (act): GELU()
        (fc2): Linear(in_features=384, out_features=384, bias=True)
        (drop): Dropout(p=0.0, inplace=False)
      )
      (norm_pre2): LayerNorm((384,), eps=1e-06, elementwise_affine=True)
      (mlp3): Mlp(
        (fc1): Linear(in_features=384, out_features=384, bias=True)
        (act): GELU()
        (fc2): Linear(in_features=384, out_features=384, bias=True)
        (drop): Dropout(p=0.0, inplace=False)
      )
      (norm_pre3): LayerNorm((384,), eps=1e-06, elementwise_affine=True)
      (conv): Conv2d(384, 384, kernel_size=(3, 3), stride=(1, 1), padding=(1, 1), groups=384)
    )
    (7): Block(
      (norm1): LayerNorm((384,), eps=1e-06, elementwise_affine=True)
      (attn): Attention(
        (qkv): Linear(in_features=384, out_features=1152, bias=True)
        (attn_drop): Dropout(p=0.0, inplace=False)
        (proj): Linear(in_features=384, out_features=384, bias=True)
        (proj_drop): Dropout(p=0.0, inplace=False)
      )
      (drop_path): DropPath()
      (norm2): LayerNorm((384,), eps=1e-06, elementwise_affine=True)
      (mlp): Mlp(
        (fc1): Linear(in_features=384, out_features=384, bias=True)
        (act): GELU()
        (fc2): Linear(in_features=384, out_features=384, bias=True)
        (drop): Dropout(p=0.0, inplace=False)
      )
      (norm_post): LayerNorm((384,), eps=1e-06, elementwise_affine=True)
      (mlp1): Mlp(
        (fc1): Linear(in_features=384, out_features=384, bias=True)
        (act): GELU()
        (fc2): Linear(in_features=384, out_features=384, bias=True)
        (drop): Dropout(p=0.0, inplace=False)
      )
      (norm_pre1): LayerNorm((384,), eps=1e-06, elementwise_affine=True)
      (mlp2): Mlp(
        (fc1): Linear(in_features=384, out_features=384, bias=True)
        (act): GELU()
        (fc2): Linear(in_features=384, out_features=384, bias=True)
        (drop): Dropout(p=0.0, inplace=False)
      )
      (norm_pre2): LayerNorm((384,), eps=1e-06, elementwise_affine=True)
      (mlp3): Mlp(
        (fc1): Linear(in_features=384, out_features=384, bias=True)
        (act): GELU()
        (fc2): Linear(in_features=384, out_features=384, bias=True)
        (drop): Dropout(p=0.0, inplace=False)
      )
      (norm_pre3): LayerNorm((384,), eps=1e-06, elementwise_affine=True)
      (conv): Conv2d(384, 384, kernel_size=(3, 3), stride=(1, 1), padding=(1, 1), groups=384)
    )
    (8): Block(
      (norm1): LayerNorm((384,), eps=1e-06, elementwise_affine=True)
      (attn): Attention(
        (qkv): Linear(in_features=384, out_features=1152, bias=True)
        (attn_drop): Dropout(p=0.0, inplace=False)
        (proj): Linear(in_features=384, out_features=384, bias=True)
        (proj_drop): Dropout(p=0.0, inplace=False)
      )
      (drop_path): DropPath()
      (norm2): LayerNorm((384,), eps=1e-06, elementwise_affine=True)
      (mlp): Mlp(
        (fc1): Linear(in_features=384, out_features=384, bias=True)
        (act): GELU()
        (fc2): Linear(in_features=384, out_features=384, bias=True)
        (drop): Dropout(p=0.0, inplace=False)
      )
      (norm_post): LayerNorm((384,), eps=1e-06, elementwise_affine=True)
      (mlp1): Mlp(
        (fc1): Linear(in_features=384, out_features=384, bias=True)
        (act): GELU()
        (fc2): Linear(in_features=384, out_features=384, bias=True)
        (drop): Dropout(p=0.0, inplace=False)
      )
      (norm_pre1): LayerNorm((384,), eps=1e-06, elementwise_affine=True)
      (mlp2): Mlp(
        (fc1): Linear(in_features=384, out_features=384, bias=True)
        (act): GELU()
        (fc2): Linear(in_features=384, out_features=384, bias=True)
        (drop): Dropout(p=0.0, inplace=False)
      )
      (norm_pre2): LayerNorm((384,), eps=1e-06, elementwise_affine=True)
      (mlp3): Mlp(
        (fc1): Linear(in_features=384, out_features=384, bias=True)
        (act): GELU()
        (fc2): Linear(in_features=384, out_features=384, bias=True)
        (drop): Dropout(p=0.0, inplace=False)
      )
      (norm_pre3): LayerNorm((384,), eps=1e-06, elementwise_affine=True)
      (conv): Conv2d(384, 384, kernel_size=(3, 3), stride=(1, 1), padding=(1, 1), groups=384)
    )
    (9): Block(
      (norm1): LayerNorm((384,), eps=1e-06, elementwise_affine=True)
      (attn): Attention(
        (qkv): Linear(in_features=384, out_features=1152, bias=True)
        (attn_drop): Dropout(p=0.0, inplace=False)
        (proj): Linear(in_features=384, out_features=384, bias=True)
        (proj_drop): Dropout(p=0.0, inplace=False)
      )
      (drop_path): DropPath()
      (norm2): LayerNorm((384,), eps=1e-06, elementwise_affine=True)
      (mlp): Mlp(
        (fc1): Linear(in_features=384, out_features=384, bias=True)
        (act): GELU()
        (fc2): Linear(in_features=384, out_features=384, bias=True)
        (drop): Dropout(p=0.0, inplace=False)
      )
      (norm_post): LayerNorm((384,), eps=1e-06, elementwise_affine=True)
      (mlp1): Mlp(
        (fc1): Linear(in_features=384, out_features=384, bias=True)
        (act): GELU()
        (fc2): Linear(in_features=384, out_features=384, bias=True)
        (drop): Dropout(p=0.0, inplace=False)
      )
      (norm_pre1): LayerNorm((384,), eps=1e-06, elementwise_affine=True)
      (mlp2): Mlp(
        (fc1): Linear(in_features=384, out_features=384, bias=True)
        (act): GELU()
        (fc2): Linear(in_features=384, out_features=384, bias=True)
        (drop): Dropout(p=0.0, inplace=False)
      )
      (norm_pre2): LayerNorm((384,), eps=1e-06, elementwise_affine=True)
      (mlp3): Mlp(
        (fc1): Linear(in_features=384, out_features=384, bias=True)
        (act): GELU()
        (fc2): Linear(in_features=384, out_features=384, bias=True)
        (drop): Dropout(p=0.0, inplace=False)
      )
      (norm_pre3): LayerNorm((384,), eps=1e-06, elementwise_affine=True)
      (conv): Conv2d(384, 384, kernel_size=(3, 3), stride=(1, 1), padding=(1, 1), groups=384)
    )
    (10): Block(
      (norm1): LayerNorm((384,), eps=1e-06, elementwise_affine=True)
      (attn): Attention(
        (qkv): Linear(in_features=384, out_features=1152, bias=True)
        (attn_drop): Dropout(p=0.0, inplace=False)
        (proj): Linear(in_features=384, out_features=384, bias=True)
        (proj_drop): Dropout(p=0.0, inplace=False)
      )
      (drop_path): DropPath()
      (norm2): LayerNorm((384,), eps=1e-06, elementwise_affine=True)
      (mlp): Mlp(
        (fc1): Linear(in_features=384, out_features=384, bias=True)
        (act): GELU()
        (fc2): Linear(in_features=384, out_features=384, bias=True)
        (drop): Dropout(p=0.0, inplace=False)
      )
      (norm_post): LayerNorm((384,), eps=1e-06, elementwise_affine=True)
      (mlp1): Mlp(
        (fc1): Linear(in_features=384, out_features=384, bias=True)
        (act): GELU()
        (fc2): Linear(in_features=384, out_features=384, bias=True)
        (drop): Dropout(p=0.0, inplace=False)
      )
      (norm_pre1): LayerNorm((384,), eps=1e-06, elementwise_affine=True)
      (mlp2): Mlp(
        (fc1): Linear(in_features=384, out_features=384, bias=True)
        (act): GELU()
        (fc2): Linear(in_features=384, out_features=384, bias=True)
        (drop): Dropout(p=0.0, inplace=False)
      )
      (norm_pre2): LayerNorm((384,), eps=1e-06, elementwise_affine=True)
      (mlp3): Mlp(
        (fc1): Linear(in_features=384, out_features=384, bias=True)
        (act): GELU()
        (fc2): Linear(in_features=384, out_features=384, bias=True)
        (drop): Dropout(p=0.0, inplace=False)
      )
      (norm_pre3): LayerNorm((384,), eps=1e-06, elementwise_affine=True)
      (conv): Conv2d(384, 384, kernel_size=(3, 3), stride=(1, 1), padding=(1, 1), groups=384)
    )
    (11): Block(
      (norm1): LayerNorm((384,), eps=1e-06, elementwise_affine=True)
      (attn): Attention(
        (qkv): Linear(in_features=384, out_features=1152, bias=True)
        (attn_drop): Dropout(p=0.0, inplace=False)
        (proj): Linear(in_features=384, out_features=384, bias=True)
        (proj_drop): Dropout(p=0.0, inplace=False)
      )
      (drop_path): DropPath()
      (norm2): LayerNorm((384,), eps=1e-06, elementwise_affine=True)
      (mlp): Mlp(
        (fc1): Linear(in_features=384, out_features=384, bias=True)
        (act): GELU()
        (fc2): Linear(in_features=384, out_features=384, bias=True)
        (drop): Dropout(p=0.0, inplace=False)
      )
      (norm_post): LayerNorm((384,), eps=1e-06, elementwise_affine=True)
      (mlp1): Mlp(
        (fc1): Linear(in_features=384, out_features=384, bias=True)
        (act): GELU()
        (fc2): Linear(in_features=384, out_features=384, bias=True)
        (drop): Dropout(p=0.0, inplace=False)
      )
      (norm_pre1): LayerNorm((384,), eps=1e-06, elementwise_affine=True)
      (mlp2): Mlp(
        (fc1): Linear(in_features=384, out_features=384, bias=True)
        (act): GELU()
        (fc2): Linear(in_features=384, out_features=384, bias=True)
        (drop): Dropout(p=0.0, inplace=False)
      )
      (norm_pre2): LayerNorm((384,), eps=1e-06, elementwise_affine=True)
      (mlp3): Mlp(
        (fc1): Linear(in_features=384, out_features=384, bias=True)
        (act): GELU()
        (fc2): Linear(in_features=384, out_features=384, bias=True)
        (drop): Dropout(p=0.0, inplace=False)
      )
      (norm_pre3): LayerNorm((384,), eps=1e-06, elementwise_affine=True)
      (conv): Conv2d(384, 384, kernel_size=(3, 3), stride=(1, 1), padding=(1, 1), groups=384)
    )
  )
  (norm): LayerNorm((384,), eps=1e-06, elementwise_affine=True)
  (head): Linear(in_features=384, out_features=1000, bias=True)
)
number of params: 22147432
Warning: module PatchEmbed is treated as a zero-op.
Warning: module Dropout is treated as a zero-op.
Warning: module LayerNorm is treated as a zero-op.
Warning: module Attention is treated as a zero-op.
Warning: module Identity is treated as a zero-op.
Warning: module GELU is treated as a zero-op.
Warning: module Mlp is treated as a zero-op.
Warning: module Block is treated as a zero-op.
Warning: module DropPath is treated as a zero-op.
Warning: module VisionTransformer is treated as a zero-op.
Warning: module DistributedDataParallel is treated as a zero-op.
DistributedDataParallel(
  22.015 M, 99.404% Params, 4.25 GMac, 100.000% MACs, 
  (module): VisionTransformer(
    22.015 M, 99.404% Params, 4.25 GMac, 100.000% MACs, 
    (patch_embed): PatchEmbed(
      0.295 M, 1.333% Params, 0.058 GMac, 1.362% MACs, 
      (proj): Conv2d(0.295 M, 1.333% Params, 0.058 GMac, 1.362% MACs, 3, 384, kernel_size=(16, 16), stride=(16, 16))
    )
    (pos_drop): Dropout(0.0 M, 0.000% Params, 0.0 GMac, 0.000% MACs, p=0.0, inplace=False)
    (blocks): ModuleList(
      21.335 M, 96.332% Params, 4.192 GMac, 98.629% MACs, 
      (0): Block(
        1.778 M, 8.028% Params, 0.349 GMac, 8.219% MACs, 
        (norm1): LayerNorm(0.0 M, 0.000% Params, 0.0 GMac, 0.000% MACs, (384,), eps=1e-06, elementwise_affine=True)
        (attn): Attention(
          0.591 M, 2.670% Params, 0.116 GMac, 2.734% MACs, 
          (qkv): Linear(0.444 M, 2.003% Params, 0.087 GMac, 2.050% MACs, in_features=384, out_features=1152, bias=True)
          (attn_drop): Dropout(0.0 M, 0.000% Params, 0.0 GMac, 0.000% MACs, p=0.0, inplace=False)
          (proj): Linear(0.148 M, 0.668% Params, 0.029 GMac, 0.683% MACs, in_features=384, out_features=384, bias=True)
          (proj_drop): Dropout(0.0 M, 0.000% Params, 0.0 GMac, 0.000% MACs, p=0.0, inplace=False)
        )
        (drop_path): Identity(0.0 M, 0.000% Params, 0.0 GMac, 0.000% MACs, )
        (norm2): LayerNorm(0.0 M, 0.000% Params, 0.0 GMac, 0.000% MACs, (384,), eps=1e-06, elementwise_affine=True)
        (mlp): Mlp(
          0.296 M, 1.335% Params, 0.058 GMac, 1.367% MACs, 
          (fc1): Linear(0.148 M, 0.668% Params, 0.029 GMac, 0.683% MACs, in_features=384, out_features=384, bias=True)
          (act): GELU(0.0 M, 0.000% Params, 0.0 GMac, 0.000% MACs, )
          (fc2): Linear(0.148 M, 0.668% Params, 0.029 GMac, 0.683% MACs, in_features=384, out_features=384, bias=True)
          (drop): Dropout(0.0 M, 0.000% Params, 0.0 GMac, 0.000% MACs, p=0.0, inplace=False)
        )
        (norm_post): LayerNorm(0.0 M, 0.000% Params, 0.0 GMac, 0.000% MACs, (384,), eps=1e-06, elementwise_affine=True)
        (mlp1): Mlp(
          0.296 M, 1.335% Params, 0.058 GMac, 1.367% MACs, 
          (fc1): Linear(0.148 M, 0.668% Params, 0.029 GMac, 0.683% MACs, in_features=384, out_features=384, bias=True)
          (act): GELU(0.0 M, 0.000% Params, 0.0 GMac, 0.000% MACs, )
          (fc2): Linear(0.148 M, 0.668% Params, 0.029 GMac, 0.683% MACs, in_features=384, out_features=384, bias=True)
          (drop): Dropout(0.0 M, 0.000% Params, 0.0 GMac, 0.000% MACs, p=0.0, inplace=False)
        )
        (norm_pre1): LayerNorm(0.0 M, 0.000% Params, 0.0 GMac, 0.000% MACs, (384,), eps=1e-06, elementwise_affine=True)
        (mlp2): Mlp(
          0.296 M, 1.335% Params, 0.058 GMac, 1.367% MACs, 
          (fc1): Linear(0.148 M, 0.668% Params, 0.029 GMac, 0.683% MACs, in_features=384, out_features=384, bias=True)
          (act): GELU(0.0 M, 0.000% Params, 0.0 GMac, 0.000% MACs, )
          (fc2): Linear(0.148 M, 0.668% Params, 0.029 GMac, 0.683% MACs, in_features=384, out_features=384, bias=True)
          (drop): Dropout(0.0 M, 0.000% Params, 0.0 GMac, 0.000% MACs, p=0.0, inplace=False)
        )
        (norm_pre2): LayerNorm(0.0 M, 0.000% Params, 0.0 GMac, 0.000% MACs, (384,), eps=1e-06, elementwise_affine=True)
        (mlp3): Mlp(
          0.296 M, 1.335% Params, 0.058 GMac, 1.367% MACs, 
          (fc1): Linear(0.148 M, 0.668% Params, 0.029 GMac, 0.683% MACs, in_features=384, out_features=384, bias=True)
          (act): GELU(0.0 M, 0.000% Params, 0.0 GMac, 0.000% MACs, )
          (fc2): Linear(0.148 M, 0.668% Params, 0.029 GMac, 0.683% MACs, in_features=384, out_features=384, bias=True)
          (drop): Dropout(0.0 M, 0.000% Params, 0.0 GMac, 0.000% MACs, p=0.0, inplace=False)
        )
        (norm_pre3): LayerNorm(0.0 M, 0.000% Params, 0.0 GMac, 0.000% MACs, (384,), eps=1e-06, elementwise_affine=True)
        (conv): Conv2d(0.004 M, 0.017% Params, 0.001 GMac, 0.018% MACs, 384, 384, kernel_size=(3, 3), stride=(1, 1), padding=(1, 1), groups=384)
      )
      (1): Block(
        1.778 M, 8.028% Params, 0.349 GMac, 8.219% MACs, 
        (norm1): LayerNorm(0.0 M, 0.000% Params, 0.0 GMac, 0.000% MACs, (384,), eps=1e-06, elementwise_affine=True)
        (attn): Attention(
          0.591 M, 2.670% Params, 0.116 GMac, 2.734% MACs, 
          (qkv): Linear(0.444 M, 2.003% Params, 0.087 GMac, 2.050% MACs, in_features=384, out_features=1152, bias=True)
          (attn_drop): Dropout(0.0 M, 0.000% Params, 0.0 GMac, 0.000% MACs, p=0.0, inplace=False)
          (proj): Linear(0.148 M, 0.668% Params, 0.029 GMac, 0.683% MACs, in_features=384, out_features=384, bias=True)
          (proj_drop): Dropout(0.0 M, 0.000% Params, 0.0 GMac, 0.000% MACs, p=0.0, inplace=False)
        )
        (drop_path): DropPath(0.0 M, 0.000% Params, 0.0 GMac, 0.000% MACs, )
        (norm2): LayerNorm(0.0 M, 0.000% Params, 0.0 GMac, 0.000% MACs, (384,), eps=1e-06, elementwise_affine=True)
        (mlp): Mlp(
          0.296 M, 1.335% Params, 0.058 GMac, 1.367% MACs, 
          (fc1): Linear(0.148 M, 0.668% Params, 0.029 GMac, 0.683% MACs, in_features=384, out_features=384, bias=True)
          (act): GELU(0.0 M, 0.000% Params, 0.0 GMac, 0.000% MACs, )
          (fc2): Linear(0.148 M, 0.668% Params, 0.029 GMac, 0.683% MACs, in_features=384, out_features=384, bias=True)
          (drop): Dropout(0.0 M, 0.000% Params, 0.0 GMac, 0.000% MACs, p=0.0, inplace=False)
        )
        (norm_post): LayerNorm(0.0 M, 0.000% Params, 0.0 GMac, 0.000% MACs, (384,), eps=1e-06, elementwise_affine=True)
        (mlp1): Mlp(
          0.296 M, 1.335% Params, 0.058 GMac, 1.367% MACs, 
          (fc1): Linear(0.148 M, 0.668% Params, 0.029 GMac, 0.683% MACs, in_features=384, out_features=384, bias=True)
          (act): GELU(0.0 M, 0.000% Params, 0.0 GMac, 0.000% MACs, )
          (fc2): Linear(0.148 M, 0.668% Params, 0.029 GMac, 0.683% MACs, in_features=384, out_features=384, bias=True)
          (drop): Dropout(0.0 M, 0.000% Params, 0.0 GMac, 0.000% MACs, p=0.0, inplace=False)
        )
        (norm_pre1): LayerNorm(0.0 M, 0.000% Params, 0.0 GMac, 0.000% MACs, (384,), eps=1e-06, elementwise_affine=True)
        (mlp2): Mlp(
          0.296 M, 1.335% Params, 0.058 GMac, 1.367% MACs, 
          (fc1): Linear(0.148 M, 0.668% Params, 0.029 GMac, 0.683% MACs, in_features=384, out_features=384, bias=True)
          (act): GELU(0.0 M, 0.000% Params, 0.0 GMac, 0.000% MACs, )
          (fc2): Linear(0.148 M, 0.668% Params, 0.029 GMac, 0.683% MACs, in_features=384, out_features=384, bias=True)
          (drop): Dropout(0.0 M, 0.000% Params, 0.0 GMac, 0.000% MACs, p=0.0, inplace=False)
        )
        (norm_pre2): LayerNorm(0.0 M, 0.000% Params, 0.0 GMac, 0.000% MACs, (384,), eps=1e-06, elementwise_affine=True)
        (mlp3): Mlp(
          0.296 M, 1.335% Params, 0.058 GMac, 1.367% MACs, 
          (fc1): Linear(0.148 M, 0.668% Params, 0.029 GMac, 0.683% MACs, in_features=384, out_features=384, bias=True)
          (act): GELU(0.0 M, 0.000% Params, 0.0 GMac, 0.000% MACs, )
          (fc2): Linear(0.148 M, 0.668% Params, 0.029 GMac, 0.683% MACs, in_features=384, out_features=384, bias=True)
          (drop): Dropout(0.0 M, 0.000% Params, 0.0 GMac, 0.000% MACs, p=0.0, inplace=False)
        )
        (norm_pre3): LayerNorm(0.0 M, 0.000% Params, 0.0 GMac, 0.000% MACs, (384,), eps=1e-06, elementwise_affine=True)
        (conv): Conv2d(0.004 M, 0.017% Params, 0.001 GMac, 0.018% MACs, 384, 384, kernel_size=(3, 3), stride=(1, 1), padding=(1, 1), groups=384)
      )
      (2): Block(
        1.778 M, 8.028% Params, 0.349 GMac, 8.219% MACs, 
        (norm1): LayerNorm(0.0 M, 0.000% Params, 0.0 GMac, 0.000% MACs, (384,), eps=1e-06, elementwise_affine=True)
        (attn): Attention(
          0.591 M, 2.670% Params, 0.116 GMac, 2.734% MACs, 
          (qkv): Linear(0.444 M, 2.003% Params, 0.087 GMac, 2.050% MACs, in_features=384, out_features=1152, bias=True)
          (attn_drop): Dropout(0.0 M, 0.000% Params, 0.0 GMac, 0.000% MACs, p=0.0, inplace=False)
          (proj): Linear(0.148 M, 0.668% Params, 0.029 GMac, 0.683% MACs, in_features=384, out_features=384, bias=True)
          (proj_drop): Dropout(0.0 M, 0.000% Params, 0.0 GMac, 0.000% MACs, p=0.0, inplace=False)
        )
        (drop_path): DropPath(0.0 M, 0.000% Params, 0.0 GMac, 0.000% MACs, )
        (norm2): LayerNorm(0.0 M, 0.000% Params, 0.0 GMac, 0.000% MACs, (384,), eps=1e-06, elementwise_affine=True)
        (mlp): Mlp(
          0.296 M, 1.335% Params, 0.058 GMac, 1.367% MACs, 
          (fc1): Linear(0.148 M, 0.668% Params, 0.029 GMac, 0.683% MACs, in_features=384, out_features=384, bias=True)
          (act): GELU(0.0 M, 0.000% Params, 0.0 GMac, 0.000% MACs, )
          (fc2): Linear(0.148 M, 0.668% Params, 0.029 GMac, 0.683% MACs, in_features=384, out_features=384, bias=True)
          (drop): Dropout(0.0 M, 0.000% Params, 0.0 GMac, 0.000% MACs, p=0.0, inplace=False)
        )
        (norm_post): LayerNorm(0.0 M, 0.000% Params, 0.0 GMac, 0.000% MACs, (384,), eps=1e-06, elementwise_affine=True)
        (mlp1): Mlp(
          0.296 M, 1.335% Params, 0.058 GMac, 1.367% MACs, 
          (fc1): Linear(0.148 M, 0.668% Params, 0.029 GMac, 0.683% MACs, in_features=384, out_features=384, bias=True)
          (act): GELU(0.0 M, 0.000% Params, 0.0 GMac, 0.000% MACs, )
          (fc2): Linear(0.148 M, 0.668% Params, 0.029 GMac, 0.683% MACs, in_features=384, out_features=384, bias=True)
          (drop): Dropout(0.0 M, 0.000% Params, 0.0 GMac, 0.000% MACs, p=0.0, inplace=False)
        )
        (norm_pre1): LayerNorm(0.0 M, 0.000% Params, 0.0 GMac, 0.000% MACs, (384,), eps=1e-06, elementwise_affine=True)
        (mlp2): Mlp(
          0.296 M, 1.335% Params, 0.058 GMac, 1.367% MACs, 
          (fc1): Linear(0.148 M, 0.668% Params, 0.029 GMac, 0.683% MACs, in_features=384, out_features=384, bias=True)
          (act): GELU(0.0 M, 0.000% Params, 0.0 GMac, 0.000% MACs, )
          (fc2): Linear(0.148 M, 0.668% Params, 0.029 GMac, 0.683% MACs, in_features=384, out_features=384, bias=True)
          (drop): Dropout(0.0 M, 0.000% Params, 0.0 GMac, 0.000% MACs, p=0.0, inplace=False)
        )
        (norm_pre2): LayerNorm(0.0 M, 0.000% Params, 0.0 GMac, 0.000% MACs, (384,), eps=1e-06, elementwise_affine=True)
        (mlp3): Mlp(
          0.296 M, 1.335% Params, 0.058 GMac, 1.367% MACs, 
          (fc1): Linear(0.148 M, 0.668% Params, 0.029 GMac, 0.683% MACs, in_features=384, out_features=384, bias=True)
          (act): GELU(0.0 M, 0.000% Params, 0.0 GMac, 0.000% MACs, )
          (fc2): Linear(0.148 M, 0.668% Params, 0.029 GMac, 0.683% MACs, in_features=384, out_features=384, bias=True)
          (drop): Dropout(0.0 M, 0.000% Params, 0.0 GMac, 0.000% MACs, p=0.0, inplace=False)
        )
        (norm_pre3): LayerNorm(0.0 M, 0.000% Params, 0.0 GMac, 0.000% MACs, (384,), eps=1e-06, elementwise_affine=True)
        (conv): Conv2d(0.004 M, 0.017% Params, 0.001 GMac, 0.018% MACs, 384, 384, kernel_size=(3, 3), stride=(1, 1), padding=(1, 1), groups=384)
      )
      (3): Block(
        1.778 M, 8.028% Params, 0.349 GMac, 8.219% MACs, 
        (norm1): LayerNorm(0.0 M, 0.000% Params, 0.0 GMac, 0.000% MACs, (384,), eps=1e-06, elementwise_affine=True)
        (attn): Attention(
          0.591 M, 2.670% Params, 0.116 GMac, 2.734% MACs, 
          (qkv): Linear(0.444 M, 2.003% Params, 0.087 GMac, 2.050% MACs, in_features=384, out_features=1152, bias=True)
          (attn_drop): Dropout(0.0 M, 0.000% Params, 0.0 GMac, 0.000% MACs, p=0.0, inplace=False)
          (proj): Linear(0.148 M, 0.668% Params, 0.029 GMac, 0.683% MACs, in_features=384, out_features=384, bias=True)
          (proj_drop): Dropout(0.0 M, 0.000% Params, 0.0 GMac, 0.000% MACs, p=0.0, inplace=False)
        )
        (drop_path): DropPath(0.0 M, 0.000% Params, 0.0 GMac, 0.000% MACs, )
        (norm2): LayerNorm(0.0 M, 0.000% Params, 0.0 GMac, 0.000% MACs, (384,), eps=1e-06, elementwise_affine=True)
        (mlp): Mlp(
          0.296 M, 1.335% Params, 0.058 GMac, 1.367% MACs, 
          (fc1): Linear(0.148 M, 0.668% Params, 0.029 GMac, 0.683% MACs, in_features=384, out_features=384, bias=True)
          (act): GELU(0.0 M, 0.000% Params, 0.0 GMac, 0.000% MACs, )
          (fc2): Linear(0.148 M, 0.668% Params, 0.029 GMac, 0.683% MACs, in_features=384, out_features=384, bias=True)
          (drop): Dropout(0.0 M, 0.000% Params, 0.0 GMac, 0.000% MACs, p=0.0, inplace=False)
        )
        (norm_post): LayerNorm(0.0 M, 0.000% Params, 0.0 GMac, 0.000% MACs, (384,), eps=1e-06, elementwise_affine=True)
        (mlp1): Mlp(
          0.296 M, 1.335% Params, 0.058 GMac, 1.367% MACs, 
          (fc1): Linear(0.148 M, 0.668% Params, 0.029 GMac, 0.683% MACs, in_features=384, out_features=384, bias=True)
          (act): GELU(0.0 M, 0.000% Params, 0.0 GMac, 0.000% MACs, )
          (fc2): Linear(0.148 M, 0.668% Params, 0.029 GMac, 0.683% MACs, in_features=384, out_features=384, bias=True)
          (drop): Dropout(0.0 M, 0.000% Params, 0.0 GMac, 0.000% MACs, p=0.0, inplace=False)
        )
        (norm_pre1): LayerNorm(0.0 M, 0.000% Params, 0.0 GMac, 0.000% MACs, (384,), eps=1e-06, elementwise_affine=True)
        (mlp2): Mlp(
          0.296 M, 1.335% Params, 0.058 GMac, 1.367% MACs, 
          (fc1): Linear(0.148 M, 0.668% Params, 0.029 GMac, 0.683% MACs, in_features=384, out_features=384, bias=True)
          (act): GELU(0.0 M, 0.000% Params, 0.0 GMac, 0.000% MACs, )
          (fc2): Linear(0.148 M, 0.668% Params, 0.029 GMac, 0.683% MACs, in_features=384, out_features=384, bias=True)
          (drop): Dropout(0.0 M, 0.000% Params, 0.0 GMac, 0.000% MACs, p=0.0, inplace=False)
        )
        (norm_pre2): LayerNorm(0.0 M, 0.000% Params, 0.0 GMac, 0.000% MACs, (384,), eps=1e-06, elementwise_affine=True)
        (mlp3): Mlp(
          0.296 M, 1.335% Params, 0.058 GMac, 1.367% MACs, 
          (fc1): Linear(0.148 M, 0.668% Params, 0.029 GMac, 0.683% MACs, in_features=384, out_features=384, bias=True)
          (act): GELU(0.0 M, 0.000% Params, 0.0 GMac, 0.000% MACs, )
          (fc2): Linear(0.148 M, 0.668% Params, 0.029 GMac, 0.683% MACs, in_features=384, out_features=384, bias=True)
          (drop): Dropout(0.0 M, 0.000% Params, 0.0 GMac, 0.000% MACs, p=0.0, inplace=False)
        )
        (norm_pre3): LayerNorm(0.0 M, 0.000% Params, 0.0 GMac, 0.000% MACs, (384,), eps=1e-06, elementwise_affine=True)
        (conv): Conv2d(0.004 M, 0.017% Params, 0.001 GMac, 0.018% MACs, 384, 384, kernel_size=(3, 3), stride=(1, 1), padding=(1, 1), groups=384)
      )
      (4): Block(
        1.778 M, 8.028% Params, 0.349 GMac, 8.219% MACs, 
        (norm1): LayerNorm(0.0 M, 0.000% Params, 0.0 GMac, 0.000% MACs, (384,), eps=1e-06, elementwise_affine=True)
        (attn): Attention(
          0.591 M, 2.670% Params, 0.116 GMac, 2.734% MACs, 
          (qkv): Linear(0.444 M, 2.003% Params, 0.087 GMac, 2.050% MACs, in_features=384, out_features=1152, bias=True)
          (attn_drop): Dropout(0.0 M, 0.000% Params, 0.0 GMac, 0.000% MACs, p=0.0, inplace=False)
          (proj): Linear(0.148 M, 0.668% Params, 0.029 GMac, 0.683% MACs, in_features=384, out_features=384, bias=True)
          (proj_drop): Dropout(0.0 M, 0.000% Params, 0.0 GMac, 0.000% MACs, p=0.0, inplace=False)
        )
        (drop_path): DropPath(0.0 M, 0.000% Params, 0.0 GMac, 0.000% MACs, )
        (norm2): LayerNorm(0.0 M, 0.000% Params, 0.0 GMac, 0.000% MACs, (384,), eps=1e-06, elementwise_affine=True)
        (mlp): Mlp(
          0.296 M, 1.335% Params, 0.058 GMac, 1.367% MACs, 
          (fc1): Linear(0.148 M, 0.668% Params, 0.029 GMac, 0.683% MACs, in_features=384, out_features=384, bias=True)
          (act): GELU(0.0 M, 0.000% Params, 0.0 GMac, 0.000% MACs, )
          (fc2): Linear(0.148 M, 0.668% Params, 0.029 GMac, 0.683% MACs, in_features=384, out_features=384, bias=True)
          (drop): Dropout(0.0 M, 0.000% Params, 0.0 GMac, 0.000% MACs, p=0.0, inplace=False)
        )
        (norm_post): LayerNorm(0.0 M, 0.000% Params, 0.0 GMac, 0.000% MACs, (384,), eps=1e-06, elementwise_affine=True)
        (mlp1): Mlp(
          0.296 M, 1.335% Params, 0.058 GMac, 1.367% MACs, 
          (fc1): Linear(0.148 M, 0.668% Params, 0.029 GMac, 0.683% MACs, in_features=384, out_features=384, bias=True)
          (act): GELU(0.0 M, 0.000% Params, 0.0 GMac, 0.000% MACs, )
          (fc2): Linear(0.148 M, 0.668% Params, 0.029 GMac, 0.683% MACs, in_features=384, out_features=384, bias=True)
          (drop): Dropout(0.0 M, 0.000% Params, 0.0 GMac, 0.000% MACs, p=0.0, inplace=False)
        )
        (norm_pre1): LayerNorm(0.0 M, 0.000% Params, 0.0 GMac, 0.000% MACs, (384,), eps=1e-06, elementwise_affine=True)
        (mlp2): Mlp(
          0.296 M, 1.335% Params, 0.058 GMac, 1.367% MACs, 
          (fc1): Linear(0.148 M, 0.668% Params, 0.029 GMac, 0.683% MACs, in_features=384, out_features=384, bias=True)
          (act): GELU(0.0 M, 0.000% Params, 0.0 GMac, 0.000% MACs, )
          (fc2): Linear(0.148 M, 0.668% Params, 0.029 GMac, 0.683% MACs, in_features=384, out_features=384, bias=True)
          (drop): Dropout(0.0 M, 0.000% Params, 0.0 GMac, 0.000% MACs, p=0.0, inplace=False)
        )
        (norm_pre2): LayerNorm(0.0 M, 0.000% Params, 0.0 GMac, 0.000% MACs, (384,), eps=1e-06, elementwise_affine=True)
        (mlp3): Mlp(
          0.296 M, 1.335% Params, 0.058 GMac, 1.367% MACs, 
          (fc1): Linear(0.148 M, 0.668% Params, 0.029 GMac, 0.683% MACs, in_features=384, out_features=384, bias=True)
          (act): GELU(0.0 M, 0.000% Params, 0.0 GMac, 0.000% MACs, )
          (fc2): Linear(0.148 M, 0.668% Params, 0.029 GMac, 0.683% MACs, in_features=384, out_features=384, bias=True)
          (drop): Dropout(0.0 M, 0.000% Params, 0.0 GMac, 0.000% MACs, p=0.0, inplace=False)
        )
        (norm_pre3): LayerNorm(0.0 M, 0.000% Params, 0.0 GMac, 0.000% MACs, (384,), eps=1e-06, elementwise_affine=True)
        (conv): Conv2d(0.004 M, 0.017% Params, 0.001 GMac, 0.018% MACs, 384, 384, kernel_size=(3, 3), stride=(1, 1), padding=(1, 1), groups=384)
      )
      (5): Block(
        1.778 M, 8.028% Params, 0.349 GMac, 8.219% MACs, 
        (norm1): LayerNorm(0.0 M, 0.000% Params, 0.0 GMac, 0.000% MACs, (384,), eps=1e-06, elementwise_affine=True)
        (attn): Attention(
          0.591 M, 2.670% Params, 0.116 GMac, 2.734% MACs, 
          (qkv): Linear(0.444 M, 2.003% Params, 0.087 GMac, 2.050% MACs, in_features=384, out_features=1152, bias=True)
          (attn_drop): Dropout(0.0 M, 0.000% Params, 0.0 GMac, 0.000% MACs, p=0.0, inplace=False)
          (proj): Linear(0.148 M, 0.668% Params, 0.029 GMac, 0.683% MACs, in_features=384, out_features=384, bias=True)
          (proj_drop): Dropout(0.0 M, 0.000% Params, 0.0 GMac, 0.000% MACs, p=0.0, inplace=False)
        )
        (drop_path): DropPath(0.0 M, 0.000% Params, 0.0 GMac, 0.000% MACs, )
        (norm2): LayerNorm(0.0 M, 0.000% Params, 0.0 GMac, 0.000% MACs, (384,), eps=1e-06, elementwise_affine=True)
        (mlp): Mlp(
          0.296 M, 1.335% Params, 0.058 GMac, 1.367% MACs, 
          (fc1): Linear(0.148 M, 0.668% Params, 0.029 GMac, 0.683% MACs, in_features=384, out_features=384, bias=True)
          (act): GELU(0.0 M, 0.000% Params, 0.0 GMac, 0.000% MACs, )
          (fc2): Linear(0.148 M, 0.668% Params, 0.029 GMac, 0.683% MACs, in_features=384, out_features=384, bias=True)
          (drop): Dropout(0.0 M, 0.000% Params, 0.0 GMac, 0.000% MACs, p=0.0, inplace=False)
        )
        (norm_post): LayerNorm(0.0 M, 0.000% Params, 0.0 GMac, 0.000% MACs, (384,), eps=1e-06, elementwise_affine=True)
        (mlp1): Mlp(
          0.296 M, 1.335% Params, 0.058 GMac, 1.367% MACs, 
          (fc1): Linear(0.148 M, 0.668% Params, 0.029 GMac, 0.683% MACs, in_features=384, out_features=384, bias=True)
          (act): GELU(0.0 M, 0.000% Params, 0.0 GMac, 0.000% MACs, )
          (fc2): Linear(0.148 M, 0.668% Params, 0.029 GMac, 0.683% MACs, in_features=384, out_features=384, bias=True)
          (drop): Dropout(0.0 M, 0.000% Params, 0.0 GMac, 0.000% MACs, p=0.0, inplace=False)
        )
        (norm_pre1): LayerNorm(0.0 M, 0.000% Params, 0.0 GMac, 0.000% MACs, (384,), eps=1e-06, elementwise_affine=True)
        (mlp2): Mlp(
          0.296 M, 1.335% Params, 0.058 GMac, 1.367% MACs, 
          (fc1): Linear(0.148 M, 0.668% Params, 0.029 GMac, 0.683% MACs, in_features=384, out_features=384, bias=True)
          (act): GELU(0.0 M, 0.000% Params, 0.0 GMac, 0.000% MACs, )
          (fc2): Linear(0.148 M, 0.668% Params, 0.029 GMac, 0.683% MACs, in_features=384, out_features=384, bias=True)
          (drop): Dropout(0.0 M, 0.000% Params, 0.0 GMac, 0.000% MACs, p=0.0, inplace=False)
        )
        (norm_pre2): LayerNorm(0.0 M, 0.000% Params, 0.0 GMac, 0.000% MACs, (384,), eps=1e-06, elementwise_affine=True)
        (mlp3): Mlp(
          0.296 M, 1.335% Params, 0.058 GMac, 1.367% MACs, 
          (fc1): Linear(0.148 M, 0.668% Params, 0.029 GMac, 0.683% MACs, in_features=384, out_features=384, bias=True)
          (act): GELU(0.0 M, 0.000% Params, 0.0 GMac, 0.000% MACs, )
          (fc2): Linear(0.148 M, 0.668% Params, 0.029 GMac, 0.683% MACs, in_features=384, out_features=384, bias=True)
          (drop): Dropout(0.0 M, 0.000% Params, 0.0 GMac, 0.000% MACs, p=0.0, inplace=False)
        )
        (norm_pre3): LayerNorm(0.0 M, 0.000% Params, 0.0 GMac, 0.000% MACs, (384,), eps=1e-06, elementwise_affine=True)
        (conv): Conv2d(0.004 M, 0.017% Params, 0.001 GMac, 0.018% MACs, 384, 384, kernel_size=(3, 3), stride=(1, 1), padding=(1, 1), groups=384)
      )
      (6): Block(
        1.778 M, 8.028% Params, 0.349 GMac, 8.219% MACs, 
        (norm1): LayerNorm(0.0 M, 0.000% Params, 0.0 GMac, 0.000% MACs, (384,), eps=1e-06, elementwise_affine=True)
        (attn): Attention(
          0.591 M, 2.670% Params, 0.116 GMac, 2.734% MACs, 
          (qkv): Linear(0.444 M, 2.003% Params, 0.087 GMac, 2.050% MACs, in_features=384, out_features=1152, bias=True)
          (attn_drop): Dropout(0.0 M, 0.000% Params, 0.0 GMac, 0.000% MACs, p=0.0, inplace=False)
          (proj): Linear(0.148 M, 0.668% Params, 0.029 GMac, 0.683% MACs, in_features=384, out_features=384, bias=True)
          (proj_drop): Dropout(0.0 M, 0.000% Params, 0.0 GMac, 0.000% MACs, p=0.0, inplace=False)
        )
        (drop_path): DropPath(0.0 M, 0.000% Params, 0.0 GMac, 0.000% MACs, )
        (norm2): LayerNorm(0.0 M, 0.000% Params, 0.0 GMac, 0.000% MACs, (384,), eps=1e-06, elementwise_affine=True)
        (mlp): Mlp(
          0.296 M, 1.335% Params, 0.058 GMac, 1.367% MACs, 
          (fc1): Linear(0.148 M, 0.668% Params, 0.029 GMac, 0.683% MACs, in_features=384, out_features=384, bias=True)
          (act): GELU(0.0 M, 0.000% Params, 0.0 GMac, 0.000% MACs, )
          (fc2): Linear(0.148 M, 0.668% Params, 0.029 GMac, 0.683% MACs, in_features=384, out_features=384, bias=True)
          (drop): Dropout(0.0 M, 0.000% Params, 0.0 GMac, 0.000% MACs, p=0.0, inplace=False)
        )
        (norm_post): LayerNorm(0.0 M, 0.000% Params, 0.0 GMac, 0.000% MACs, (384,), eps=1e-06, elementwise_affine=True)
        (mlp1): Mlp(
          0.296 M, 1.335% Params, 0.058 GMac, 1.367% MACs, 
          (fc1): Linear(0.148 M, 0.668% Params, 0.029 GMac, 0.683% MACs, in_features=384, out_features=384, bias=True)
          (act): GELU(0.0 M, 0.000% Params, 0.0 GMac, 0.000% MACs, )
          (fc2): Linear(0.148 M, 0.668% Params, 0.029 GMac, 0.683% MACs, in_features=384, out_features=384, bias=True)
          (drop): Dropout(0.0 M, 0.000% Params, 0.0 GMac, 0.000% MACs, p=0.0, inplace=False)
        )
        (norm_pre1): LayerNorm(0.0 M, 0.000% Params, 0.0 GMac, 0.000% MACs, (384,), eps=1e-06, elementwise_affine=True)
        (mlp2): Mlp(
          0.296 M, 1.335% Params, 0.058 GMac, 1.367% MACs, 
          (fc1): Linear(0.148 M, 0.668% Params, 0.029 GMac, 0.683% MACs, in_features=384, out_features=384, bias=True)
          (act): GELU(0.0 M, 0.000% Params, 0.0 GMac, 0.000% MACs, )
          (fc2): Linear(0.148 M, 0.668% Params, 0.029 GMac, 0.683% MACs, in_features=384, out_features=384, bias=True)
          (drop): Dropout(0.0 M, 0.000% Params, 0.0 GMac, 0.000% MACs, p=0.0, inplace=False)
        )
        (norm_pre2): LayerNorm(0.0 M, 0.000% Params, 0.0 GMac, 0.000% MACs, (384,), eps=1e-06, elementwise_affine=True)
        (mlp3): Mlp(
          0.296 M, 1.335% Params, 0.058 GMac, 1.367% MACs, 
          (fc1): Linear(0.148 M, 0.668% Params, 0.029 GMac, 0.683% MACs, in_features=384, out_features=384, bias=True)
          (act): GELU(0.0 M, 0.000% Params, 0.0 GMac, 0.000% MACs, )
          (fc2): Linear(0.148 M, 0.668% Params, 0.029 GMac, 0.683% MACs, in_features=384, out_features=384, bias=True)
          (drop): Dropout(0.0 M, 0.000% Params, 0.0 GMac, 0.000% MACs, p=0.0, inplace=False)
        )
        (norm_pre3): LayerNorm(0.0 M, 0.000% Params, 0.0 GMac, 0.000% MACs, (384,), eps=1e-06, elementwise_affine=True)
        (conv): Conv2d(0.004 M, 0.017% Params, 0.001 GMac, 0.018% MACs, 384, 384, kernel_size=(3, 3), stride=(1, 1), padding=(1, 1), groups=384)
      )
      (7): Block(
        1.778 M, 8.028% Params, 0.349 GMac, 8.219% MACs, 
        (norm1): LayerNorm(0.0 M, 0.000% Params, 0.0 GMac, 0.000% MACs, (384,), eps=1e-06, elementwise_affine=True)
        (attn): Attention(
          0.591 M, 2.670% Params, 0.116 GMac, 2.734% MACs, 
          (qkv): Linear(0.444 M, 2.003% Params, 0.087 GMac, 2.050% MACs, in_features=384, out_features=1152, bias=True)
          (attn_drop): Dropout(0.0 M, 0.000% Params, 0.0 GMac, 0.000% MACs, p=0.0, inplace=False)
          (proj): Linear(0.148 M, 0.668% Params, 0.029 GMac, 0.683% MACs, in_features=384, out_features=384, bias=True)
          (proj_drop): Dropout(0.0 M, 0.000% Params, 0.0 GMac, 0.000% MACs, p=0.0, inplace=False)
        )
        (drop_path): DropPath(0.0 M, 0.000% Params, 0.0 GMac, 0.000% MACs, )
        (norm2): LayerNorm(0.0 M, 0.000% Params, 0.0 GMac, 0.000% MACs, (384,), eps=1e-06, elementwise_affine=True)
        (mlp): Mlp(
          0.296 M, 1.335% Params, 0.058 GMac, 1.367% MACs, 
          (fc1): Linear(0.148 M, 0.668% Params, 0.029 GMac, 0.683% MACs, in_features=384, out_features=384, bias=True)
          (act): GELU(0.0 M, 0.000% Params, 0.0 GMac, 0.000% MACs, )
          (fc2): Linear(0.148 M, 0.668% Params, 0.029 GMac, 0.683% MACs, in_features=384, out_features=384, bias=True)
          (drop): Dropout(0.0 M, 0.000% Params, 0.0 GMac, 0.000% MACs, p=0.0, inplace=False)
        )
        (norm_post): LayerNorm(0.0 M, 0.000% Params, 0.0 GMac, 0.000% MACs, (384,), eps=1e-06, elementwise_affine=True)
        (mlp1): Mlp(
          0.296 M, 1.335% Params, 0.058 GMac, 1.367% MACs, 
          (fc1): Linear(0.148 M, 0.668% Params, 0.029 GMac, 0.683% MACs, in_features=384, out_features=384, bias=True)
          (act): GELU(0.0 M, 0.000% Params, 0.0 GMac, 0.000% MACs, )
          (fc2): Linear(0.148 M, 0.668% Params, 0.029 GMac, 0.683% MACs, in_features=384, out_features=384, bias=True)
          (drop): Dropout(0.0 M, 0.000% Params, 0.0 GMac, 0.000% MACs, p=0.0, inplace=False)
        )
        (norm_pre1): LayerNorm(0.0 M, 0.000% Params, 0.0 GMac, 0.000% MACs, (384,), eps=1e-06, elementwise_affine=True)
        (mlp2): Mlp(
          0.296 M, 1.335% Params, 0.058 GMac, 1.367% MACs, 
          (fc1): Linear(0.148 M, 0.668% Params, 0.029 GMac, 0.683% MACs, in_features=384, out_features=384, bias=True)
          (act): GELU(0.0 M, 0.000% Params, 0.0 GMac, 0.000% MACs, )
          (fc2): Linear(0.148 M, 0.668% Params, 0.029 GMac, 0.683% MACs, in_features=384, out_features=384, bias=True)
          (drop): Dropout(0.0 M, 0.000% Params, 0.0 GMac, 0.000% MACs, p=0.0, inplace=False)
        )
        (norm_pre2): LayerNorm(0.0 M, 0.000% Params, 0.0 GMac, 0.000% MACs, (384,), eps=1e-06, elementwise_affine=True)
        (mlp3): Mlp(
          0.296 M, 1.335% Params, 0.058 GMac, 1.367% MACs, 
          (fc1): Linear(0.148 M, 0.668% Params, 0.029 GMac, 0.683% MACs, in_features=384, out_features=384, bias=True)
          (act): GELU(0.0 M, 0.000% Params, 0.0 GMac, 0.000% MACs, )
          (fc2): Linear(0.148 M, 0.668% Params, 0.029 GMac, 0.683% MACs, in_features=384, out_features=384, bias=True)
          (drop): Dropout(0.0 M, 0.000% Params, 0.0 GMac, 0.000% MACs, p=0.0, inplace=False)
        )
        (norm_pre3): LayerNorm(0.0 M, 0.000% Params, 0.0 GMac, 0.000% MACs, (384,), eps=1e-06, elementwise_affine=True)
        (conv): Conv2d(0.004 M, 0.017% Params, 0.001 GMac, 0.018% MACs, 384, 384, kernel_size=(3, 3), stride=(1, 1), padding=(1, 1), groups=384)
      )
      (8): Block(
        1.778 M, 8.028% Params, 0.349 GMac, 8.219% MACs, 
        (norm1): LayerNorm(0.0 M, 0.000% Params, 0.0 GMac, 0.000% MACs, (384,), eps=1e-06, elementwise_affine=True)
        (attn): Attention(
          0.591 M, 2.670% Params, 0.116 GMac, 2.734% MACs, 
          (qkv): Linear(0.444 M, 2.003% Params, 0.087 GMac, 2.050% MACs, in_features=384, out_features=1152, bias=True)
          (attn_drop): Dropout(0.0 M, 0.000% Params, 0.0 GMac, 0.000% MACs, p=0.0, inplace=False)
          (proj): Linear(0.148 M, 0.668% Params, 0.029 GMac, 0.683% MACs, in_features=384, out_features=384, bias=True)
          (proj_drop): Dropout(0.0 M, 0.000% Params, 0.0 GMac, 0.000% MACs, p=0.0, inplace=False)
        )
        (drop_path): DropPath(0.0 M, 0.000% Params, 0.0 GMac, 0.000% MACs, )
        (norm2): LayerNorm(0.0 M, 0.000% Params, 0.0 GMac, 0.000% MACs, (384,), eps=1e-06, elementwise_affine=True)
        (mlp): Mlp(
          0.296 M, 1.335% Params, 0.058 GMac, 1.367% MACs, 
          (fc1): Linear(0.148 M, 0.668% Params, 0.029 GMac, 0.683% MACs, in_features=384, out_features=384, bias=True)
          (act): GELU(0.0 M, 0.000% Params, 0.0 GMac, 0.000% MACs, )
          (fc2): Linear(0.148 M, 0.668% Params, 0.029 GMac, 0.683% MACs, in_features=384, out_features=384, bias=True)
          (drop): Dropout(0.0 M, 0.000% Params, 0.0 GMac, 0.000% MACs, p=0.0, inplace=False)
        )
        (norm_post): LayerNorm(0.0 M, 0.000% Params, 0.0 GMac, 0.000% MACs, (384,), eps=1e-06, elementwise_affine=True)
        (mlp1): Mlp(
          0.296 M, 1.335% Params, 0.058 GMac, 1.367% MACs, 
          (fc1): Linear(0.148 M, 0.668% Params, 0.029 GMac, 0.683% MACs, in_features=384, out_features=384, bias=True)
          (act): GELU(0.0 M, 0.000% Params, 0.0 GMac, 0.000% MACs, )
          (fc2): Linear(0.148 M, 0.668% Params, 0.029 GMac, 0.683% MACs, in_features=384, out_features=384, bias=True)
          (drop): Dropout(0.0 M, 0.000% Params, 0.0 GMac, 0.000% MACs, p=0.0, inplace=False)
        )
        (norm_pre1): LayerNorm(0.0 M, 0.000% Params, 0.0 GMac, 0.000% MACs, (384,), eps=1e-06, elementwise_affine=True)
        (mlp2): Mlp(
          0.296 M, 1.335% Params, 0.058 GMac, 1.367% MACs, 
          (fc1): Linear(0.148 M, 0.668% Params, 0.029 GMac, 0.683% MACs, in_features=384, out_features=384, bias=True)
          (act): GELU(0.0 M, 0.000% Params, 0.0 GMac, 0.000% MACs, )
          (fc2): Linear(0.148 M, 0.668% Params, 0.029 GMac, 0.683% MACs, in_features=384, out_features=384, bias=True)
          (drop): Dropout(0.0 M, 0.000% Params, 0.0 GMac, 0.000% MACs, p=0.0, inplace=False)
        )
        (norm_pre2): LayerNorm(0.0 M, 0.000% Params, 0.0 GMac, 0.000% MACs, (384,), eps=1e-06, elementwise_affine=True)
        (mlp3): Mlp(
          0.296 M, 1.335% Params, 0.058 GMac, 1.367% MACs, 
          (fc1): Linear(0.148 M, 0.668% Params, 0.029 GMac, 0.683% MACs, in_features=384, out_features=384, bias=True)
          (act): GELU(0.0 M, 0.000% Params, 0.0 GMac, 0.000% MACs, )
          (fc2): Linear(0.148 M, 0.668% Params, 0.029 GMac, 0.683% MACs, in_features=384, out_features=384, bias=True)
          (drop): Dropout(0.0 M, 0.000% Params, 0.0 GMac, 0.000% MACs, p=0.0, inplace=False)
        )
        (norm_pre3): LayerNorm(0.0 M, 0.000% Params, 0.0 GMac, 0.000% MACs, (384,), eps=1e-06, elementwise_affine=True)
        (conv): Conv2d(0.004 M, 0.017% Params, 0.001 GMac, 0.018% MACs, 384, 384, kernel_size=(3, 3), stride=(1, 1), padding=(1, 1), groups=384)
      )
      (9): Block(
        1.778 M, 8.028% Params, 0.349 GMac, 8.219% MACs, 
        (norm1): LayerNorm(0.0 M, 0.000% Params, 0.0 GMac, 0.000% MACs, (384,), eps=1e-06, elementwise_affine=True)
        (attn): Attention(
          0.591 M, 2.670% Params, 0.116 GMac, 2.734% MACs, 
          (qkv): Linear(0.444 M, 2.003% Params, 0.087 GMac, 2.050% MACs, in_features=384, out_features=1152, bias=True)
          (attn_drop): Dropout(0.0 M, 0.000% Params, 0.0 GMac, 0.000% MACs, p=0.0, inplace=False)
          (proj): Linear(0.148 M, 0.668% Params, 0.029 GMac, 0.683% MACs, in_features=384, out_features=384, bias=True)
          (proj_drop): Dropout(0.0 M, 0.000% Params, 0.0 GMac, 0.000% MACs, p=0.0, inplace=False)
        )
        (drop_path): DropPath(0.0 M, 0.000% Params, 0.0 GMac, 0.000% MACs, )
        (norm2): LayerNorm(0.0 M, 0.000% Params, 0.0 GMac, 0.000% MACs, (384,), eps=1e-06, elementwise_affine=True)
        (mlp): Mlp(
          0.296 M, 1.335% Params, 0.058 GMac, 1.367% MACs, 
          (fc1): Linear(0.148 M, 0.668% Params, 0.029 GMac, 0.683% MACs, in_features=384, out_features=384, bias=True)
          (act): GELU(0.0 M, 0.000% Params, 0.0 GMac, 0.000% MACs, )
          (fc2): Linear(0.148 M, 0.668% Params, 0.029 GMac, 0.683% MACs, in_features=384, out_features=384, bias=True)
          (drop): Dropout(0.0 M, 0.000% Params, 0.0 GMac, 0.000% MACs, p=0.0, inplace=False)
        )
        (norm_post): LayerNorm(0.0 M, 0.000% Params, 0.0 GMac, 0.000% MACs, (384,), eps=1e-06, elementwise_affine=True)
        (mlp1): Mlp(
          0.296 M, 1.335% Params, 0.058 GMac, 1.367% MACs, 
          (fc1): Linear(0.148 M, 0.668% Params, 0.029 GMac, 0.683% MACs, in_features=384, out_features=384, bias=True)
          (act): GELU(0.0 M, 0.000% Params, 0.0 GMac, 0.000% MACs, )
          (fc2): Linear(0.148 M, 0.668% Params, 0.029 GMac, 0.683% MACs, in_features=384, out_features=384, bias=True)
          (drop): Dropout(0.0 M, 0.000% Params, 0.0 GMac, 0.000% MACs, p=0.0, inplace=False)
        )
        (norm_pre1): LayerNorm(0.0 M, 0.000% Params, 0.0 GMac, 0.000% MACs, (384,), eps=1e-06, elementwise_affine=True)
        (mlp2): Mlp(
          0.296 M, 1.335% Params, 0.058 GMac, 1.367% MACs, 
          (fc1): Linear(0.148 M, 0.668% Params, 0.029 GMac, 0.683% MACs, in_features=384, out_features=384, bias=True)
          (act): GELU(0.0 M, 0.000% Params, 0.0 GMac, 0.000% MACs, )
          (fc2): Linear(0.148 M, 0.668% Params, 0.029 GMac, 0.683% MACs, in_features=384, out_features=384, bias=True)
          (drop): Dropout(0.0 M, 0.000% Params, 0.0 GMac, 0.000% MACs, p=0.0, inplace=False)
        )
        (norm_pre2): LayerNorm(0.0 M, 0.000% Params, 0.0 GMac, 0.000% MACs, (384,), eps=1e-06, elementwise_affine=True)
        (mlp3): Mlp(
          0.296 M, 1.335% Params, 0.058 GMac, 1.367% MACs, 
          (fc1): Linear(0.148 M, 0.668% Params, 0.029 GMac, 0.683% MACs, in_features=384, out_features=384, bias=True)
          (act): GELU(0.0 M, 0.000% Params, 0.0 GMac, 0.000% MACs, )
          (fc2): Linear(0.148 M, 0.668% Params, 0.029 GMac, 0.683% MACs, in_features=384, out_features=384, bias=True)
          (drop): Dropout(0.0 M, 0.000% Params, 0.0 GMac, 0.000% MACs, p=0.0, inplace=False)
        )
        (norm_pre3): LayerNorm(0.0 M, 0.000% Params, 0.0 GMac, 0.000% MACs, (384,), eps=1e-06, elementwise_affine=True)
        (conv): Conv2d(0.004 M, 0.017% Params, 0.001 GMac, 0.018% MACs, 384, 384, kernel_size=(3, 3), stride=(1, 1), padding=(1, 1), groups=384)
      )
      (10): Block(
        1.778 M, 8.028% Params, 0.349 GMac, 8.219% MACs, 
        (norm1): LayerNorm(0.0 M, 0.000% Params, 0.0 GMac, 0.000% MACs, (384,), eps=1e-06, elementwise_affine=True)
        (attn): Attention(
          0.591 M, 2.670% Params, 0.116 GMac, 2.734% MACs, 
          (qkv): Linear(0.444 M, 2.003% Params, 0.087 GMac, 2.050% MACs, in_features=384, out_features=1152, bias=True)
          (attn_drop): Dropout(0.0 M, 0.000% Params, 0.0 GMac, 0.000% MACs, p=0.0, inplace=False)
          (proj): Linear(0.148 M, 0.668% Params, 0.029 GMac, 0.683% MACs, in_features=384, out_features=384, bias=True)
          (proj_drop): Dropout(0.0 M, 0.000% Params, 0.0 GMac, 0.000% MACs, p=0.0, inplace=False)
        )
        (drop_path): DropPath(0.0 M, 0.000% Params, 0.0 GMac, 0.000% MACs, )
        (norm2): LayerNorm(0.0 M, 0.000% Params, 0.0 GMac, 0.000% MACs, (384,), eps=1e-06, elementwise_affine=True)
        (mlp): Mlp(
          0.296 M, 1.335% Params, 0.058 GMac, 1.367% MACs, 
          (fc1): Linear(0.148 M, 0.668% Params, 0.029 GMac, 0.683% MACs, in_features=384, out_features=384, bias=True)
          (act): GELU(0.0 M, 0.000% Params, 0.0 GMac, 0.000% MACs, )
          (fc2): Linear(0.148 M, 0.668% Params, 0.029 GMac, 0.683% MACs, in_features=384, out_features=384, bias=True)
          (drop): Dropout(0.0 M, 0.000% Params, 0.0 GMac, 0.000% MACs, p=0.0, inplace=False)
        )
        (norm_post): LayerNorm(0.0 M, 0.000% Params, 0.0 GMac, 0.000% MACs, (384,), eps=1e-06, elementwise_affine=True)
        (mlp1): Mlp(
          0.296 M, 1.335% Params, 0.058 GMac, 1.367% MACs, 
          (fc1): Linear(0.148 M, 0.668% Params, 0.029 GMac, 0.683% MACs, in_features=384, out_features=384, bias=True)
          (act): GELU(0.0 M, 0.000% Params, 0.0 GMac, 0.000% MACs, )
          (fc2): Linear(0.148 M, 0.668% Params, 0.029 GMac, 0.683% MACs, in_features=384, out_features=384, bias=True)
          (drop): Dropout(0.0 M, 0.000% Params, 0.0 GMac, 0.000% MACs, p=0.0, inplace=False)
        )
        (norm_pre1): LayerNorm(0.0 M, 0.000% Params, 0.0 GMac, 0.000% MACs, (384,), eps=1e-06, elementwise_affine=True)
        (mlp2): Mlp(
          0.296 M, 1.335% Params, 0.058 GMac, 1.367% MACs, 
          (fc1): Linear(0.148 M, 0.668% Params, 0.029 GMac, 0.683% MACs, in_features=384, out_features=384, bias=True)
          (act): GELU(0.0 M, 0.000% Params, 0.0 GMac, 0.000% MACs, )
          (fc2): Linear(0.148 M, 0.668% Params, 0.029 GMac, 0.683% MACs, in_features=384, out_features=384, bias=True)
          (drop): Dropout(0.0 M, 0.000% Params, 0.0 GMac, 0.000% MACs, p=0.0, inplace=False)
        )
        (norm_pre2): LayerNorm(0.0 M, 0.000% Params, 0.0 GMac, 0.000% MACs, (384,), eps=1e-06, elementwise_affine=True)
        (mlp3): Mlp(
          0.296 M, 1.335% Params, 0.058 GMac, 1.367% MACs, 
          (fc1): Linear(0.148 M, 0.668% Params, 0.029 GMac, 0.683% MACs, in_features=384, out_features=384, bias=True)
          (act): GELU(0.0 M, 0.000% Params, 0.0 GMac, 0.000% MACs, )
          (fc2): Linear(0.148 M, 0.668% Params, 0.029 GMac, 0.683% MACs, in_features=384, out_features=384, bias=True)
          (drop): Dropout(0.0 M, 0.000% Params, 0.0 GMac, 0.000% MACs, p=0.0, inplace=False)
        )
        (norm_pre3): LayerNorm(0.0 M, 0.000% Params, 0.0 GMac, 0.000% MACs, (384,), eps=1e-06, elementwise_affine=True)
        (conv): Conv2d(0.004 M, 0.017% Params, 0.001 GMac, 0.018% MACs, 384, 384, kernel_size=(3, 3), stride=(1, 1), padding=(1, 1), groups=384)
      )
      (11): Block(
        1.778 M, 8.028% Params, 0.349 GMac, 8.219% MACs, 
        (norm1): LayerNorm(0.0 M, 0.000% Params, 0.0 GMac, 0.000% MACs, (384,), eps=1e-06, elementwise_affine=True)
        (attn): Attention(
          0.591 M, 2.670% Params, 0.116 GMac, 2.734% MACs, 
          (qkv): Linear(0.444 M, 2.003% Params, 0.087 GMac, 2.050% MACs, in_features=384, out_features=1152, bias=True)
          (attn_drop): Dropout(0.0 M, 0.000% Params, 0.0 GMac, 0.000% MACs, p=0.0, inplace=False)
          (proj): Linear(0.148 M, 0.668% Params, 0.029 GMac, 0.683% MACs, in_features=384, out_features=384, bias=True)
          (proj_drop): Dropout(0.0 M, 0.000% Params, 0.0 GMac, 0.000% MACs, p=0.0, inplace=False)
        )
        (drop_path): DropPath(0.0 M, 0.000% Params, 0.0 GMac, 0.000% MACs, )
        (norm2): LayerNorm(0.0 M, 0.000% Params, 0.0 GMac, 0.000% MACs, (384,), eps=1e-06, elementwise_affine=True)
        (mlp): Mlp(
          0.296 M, 1.335% Params, 0.058 GMac, 1.367% MACs, 
          (fc1): Linear(0.148 M, 0.668% Params, 0.029 GMac, 0.683% MACs, in_features=384, out_features=384, bias=True)
          (act): GELU(0.0 M, 0.000% Params, 0.0 GMac, 0.000% MACs, )
          (fc2): Linear(0.148 M, 0.668% Params, 0.029 GMac, 0.683% MACs, in_features=384, out_features=384, bias=True)
          (drop): Dropout(0.0 M, 0.000% Params, 0.0 GMac, 0.000% MACs, p=0.0, inplace=False)
        )
        (norm_post): LayerNorm(0.0 M, 0.000% Params, 0.0 GMac, 0.000% MACs, (384,), eps=1e-06, elementwise_affine=True)
        (mlp1): Mlp(
          0.296 M, 1.335% Params, 0.058 GMac, 1.367% MACs, 
          (fc1): Linear(0.148 M, 0.668% Params, 0.029 GMac, 0.683% MACs, in_features=384, out_features=384, bias=True)
          (act): GELU(0.0 M, 0.000% Params, 0.0 GMac, 0.000% MACs, )
          (fc2): Linear(0.148 M, 0.668% Params, 0.029 GMac, 0.683% MACs, in_features=384, out_features=384, bias=True)
          (drop): Dropout(0.0 M, 0.000% Params, 0.0 GMac, 0.000% MACs, p=0.0, inplace=False)
        )
        (norm_pre1): LayerNorm(0.0 M, 0.000% Params, 0.0 GMac, 0.000% MACs, (384,), eps=1e-06, elementwise_affine=True)
        (mlp2): Mlp(
          0.296 M, 1.335% Params, 0.058 GMac, 1.367% MACs, 
          (fc1): Linear(0.148 M, 0.668% Params, 0.029 GMac, 0.683% MACs, in_features=384, out_features=384, bias=True)
          (act): GELU(0.0 M, 0.000% Params, 0.0 GMac, 0.000% MACs, )
          (fc2): Linear(0.148 M, 0.668% Params, 0.029 GMac, 0.683% MACs, in_features=384, out_features=384, bias=True)
          (drop): Dropout(0.0 M, 0.000% Params, 0.0 GMac, 0.000% MACs, p=0.0, inplace=False)
        )
        (norm_pre2): LayerNorm(0.0 M, 0.000% Params, 0.0 GMac, 0.000% MACs, (384,), eps=1e-06, elementwise_affine=True)
        (mlp3): Mlp(
          0.296 M, 1.335% Params, 0.058 GMac, 1.367% MACs, 
          (fc1): Linear(0.148 M, 0.668% Params, 0.029 GMac, 0.683% MACs, in_features=384, out_features=384, bias=True)
          (act): GELU(0.0 M, 0.000% Params, 0.0 GMac, 0.000% MACs, )
          (fc2): Linear(0.148 M, 0.668% Params, 0.029 GMac, 0.683% MACs, in_features=384, out_features=384, bias=True)
          (drop): Dropout(0.0 M, 0.000% Params, 0.0 GMac, 0.000% MACs, p=0.0, inplace=False)
        )
        (norm_pre3): LayerNorm(0.0 M, 0.000% Params, 0.0 GMac, 0.000% MACs, (384,), eps=1e-06, elementwise_affine=True)
        (conv): Conv2d(0.004 M, 0.017% Params, 0.001 GMac, 0.018% MACs, 384, 384, kernel_size=(3, 3), stride=(1, 1), padding=(1, 1), groups=384)
      )
    )
    (norm): LayerNorm(0.0 M, 0.000% Params, 0.0 GMac, 0.000% MACs, (384,), eps=1e-06, elementwise_affine=True)
    (head): Linear(0.385 M, 1.738% Params, 0.0 GMac, 0.009% MACs, in_features=384, out_features=1000, bias=True)
  )
)
('4.25 GMac', '22.15 M')
3
Start training
Epoch: [48]  [   0/1255]  eta: 4:45:22  lr: 0.001250  loss: 5.1613 (5.1613)  time: 13.6438  data: 8.9191  max mem: 28523
Epoch: [48]  [ 100/1255]  eta: 0:29:57  lr: 0.001250  loss: 4.4894 (4.2874)  time: 1.4118  data: 0.0003  max mem: 28602
Epoch: [48]  [ 200/1255]  eta: 0:26:08  lr: 0.001250  loss: 3.9485 (4.2060)  time: 1.4231  data: 0.0004  max mem: 28602
…
