…
Warning: module Identity is treated as a zero-op.
Warning: module GELU is treated as a zero-op.
Warning: module Mlp is treated as a zero-op.
Warning: module Block is treated as a zero-op.
Warning: module DropPath is treated as a zero-op.
Warning: module VisionTransformer is treated as a zero-op.
Warning: module DistributedDataParallel is treated as a zero-op.
DistributedDataParallel(
  5.695 M, 99.012% Params, 1.079 GMac, 100.000% MACs, 
  (module): VisionTransformer(
    5.695 M, 99.012% Params, 1.079 GMac, 100.000% MACs, 
    (patch_embed): PatchEmbed(
      0.148 M, 2.567% Params, 0.029 GMac, 2.681% MACs, 
      (proj): Conv2d(0.148 M, 2.567% Params, 0.029 GMac, 2.681% MACs, 3, 192, kernel_size=(16, 16), stride=(16, 16))
    )
    (pos_drop): Dropout(0.0 M, 0.000% Params, 0.0 GMac, 0.000% MACs, p=0.0, inplace=False)
    (blocks): ModuleList(
      5.354 M, 93.090% Params, 1.05 GMac, 97.301% MACs, 
      (0): Sequential(
        0.446 M, 7.757% Params, 0.088 GMac, 8.108% MACs, 
        (0): ShuffleData(0.0 M, 0.000% Params, 0.0 GMac, 0.000% MACs, )
        (1): Block(
          0.446 M, 7.757% Params, 0.088 GMac, 8.108% MACs, 
          (norm1): LayerNorm(0.0 M, 0.000% Params, 0.0 GMac, 0.000% MACs, (192,), eps=1e-06, elementwise_affine=True)
          (attn): Attention(
            0.148 M, 2.577% Params, 0.029 GMac, 2.691% MACs, 
            (qkv): Linear(0.111 M, 1.933% Params, 0.022 GMac, 2.018% MACs, in_features=192, out_features=576, bias=True)
            (attn_drop): Dropout(0.0 M, 0.000% Params, 0.0 GMac, 0.000% MACs, p=0.0, inplace=False)
            (proj): Linear(0.037 M, 0.644% Params, 0.007 GMac, 0.673% MACs, in_features=192, out_features=192, bias=True)
            (proj_drop): Dropout(0.0 M, 0.000% Params, 0.0 GMac, 0.000% MACs, p=0.0, inplace=False)
          )
          (drop_path): Identity(0.0 M, 0.000% Params, 0.0 GMac, 0.000% MACs, )
          (norm2): LayerNorm(0.0 M, 0.000% Params, 0.0 GMac, 0.000% MACs, (192,), eps=1e-06, elementwise_affine=True)
          (mlp): Mlp(
            0.148 M, 2.574% Params, 0.029 GMac, 2.691% MACs, 
            (fc1): Linear(0.074 M, 1.288% Params, 0.015 GMac, 1.346% MACs, in_features=192, out_features=384, bias=True)
            (fc2): Linear(0.074 M, 1.285% Params, 0.015 GMac, 1.346% MACs, in_features=384, out_features=192, bias=True)
            (act): GELU(0.0 M, 0.000% Params, 0.0 GMac, 0.000% MACs, )
            (drop): Dropout(0.0 M, 0.000% Params, 0.0 GMac, 0.000% MACs, p=0.0, inplace=False)
          )
          (norm_post): LayerNorm(0.0 M, 0.000% Params, 0.0 GMac, 0.000% MACs, (192,), eps=1e-06, elementwise_affine=True)
          (mlp1): Mlp(
            0.148 M, 2.574% Params, 0.029 GMac, 2.691% MACs, 
            (fc1): Linear(0.074 M, 1.288% Params, 0.015 GMac, 1.346% MACs, in_features=192, out_features=384, bias=True)
            (fc2): Linear(0.074 M, 1.285% Params, 0.015 GMac, 1.346% MACs, in_features=384, out_features=192, bias=True)
            (act): GELU(0.0 M, 0.000% Params, 0.0 GMac, 0.000% MACs, )
            (drop): Dropout(0.0 M, 0.000% Params, 0.0 GMac, 0.000% MACs, p=0.0, inplace=False)
          )
          (norm_pre1): LayerNorm(0.0 M, 0.000% Params, 0.0 GMac, 0.000% MACs, (192,), eps=1e-06, elementwise_affine=True)
          (conv): Conv2d(0.002 M, 0.033% Params, 0.0 GMac, 0.035% MACs, 192, 192, kernel_size=(3, 3), stride=(1, 1), padding=(1, 1), groups=192)
        )
      )
      (1): Sequential(
        0.446 M, 7.757% Params, 0.088 GMac, 8.108% MACs, 
        (0): ShuffleData(0.0 M, 0.000% Params, 0.0 GMac, 0.000% MACs, )
        (1): Block(
          0.446 M, 7.757% Params, 0.088 GMac, 8.108% MACs, 
          (norm1): LayerNorm(0.0 M, 0.000% Params, 0.0 GMac, 0.000% MACs, (192,), eps=1e-06, elementwise_affine=True)
          (attn): Attention(
            0.148 M, 2.577% Params, 0.029 GMac, 2.691% MACs, 
            (qkv): Linear(0.111 M, 1.933% Params, 0.022 GMac, 2.018% MACs, in_features=192, out_features=576, bias=True)
            (attn_drop): Dropout(0.0 M, 0.000% Params, 0.0 GMac, 0.000% MACs, p=0.0, inplace=False)
            (proj): Linear(0.037 M, 0.644% Params, 0.007 GMac, 0.673% MACs, in_features=192, out_features=192, bias=True)
            (proj_drop): Dropout(0.0 M, 0.000% Params, 0.0 GMac, 0.000% MACs, p=0.0, inplace=False)
          )
          (drop_path): DropPath(0.0 M, 0.000% Params, 0.0 GMac, 0.000% MACs, )
          (norm2): LayerNorm(0.0 M, 0.000% Params, 0.0 GMac, 0.000% MACs, (192,), eps=1e-06, elementwise_affine=True)
          (mlp): Mlp(
            0.148 M, 2.574% Params, 0.029 GMac, 2.691% MACs, 
            (fc1): Linear(0.074 M, 1.288% Params, 0.015 GMac, 1.346% MACs, in_features=192, out_features=384, bias=True)
            (fc2): Linear(0.074 M, 1.285% Params, 0.015 GMac, 1.346% MACs, in_features=384, out_features=192, bias=True)
            (act): GELU(0.0 M, 0.000% Params, 0.0 GMac, 0.000% MACs, )
            (drop): Dropout(0.0 M, 0.000% Params, 0.0 GMac, 0.000% MACs, p=0.0, inplace=False)
          )
          (norm_post): LayerNorm(0.0 M, 0.000% Params, 0.0 GMac, 0.000% MACs, (192,), eps=1e-06, elementwise_affine=True)
          (mlp1): Mlp(
            0.148 M, 2.574% Params, 0.029 GMac, 2.691% MACs, 
            (fc1): Linear(0.074 M, 1.288% Params, 0.015 GMac, 1.346% MACs, in_features=192, out_features=384, bias=True)
            (fc2): Linear(0.074 M, 1.285% Params, 0.015 GMac, 1.346% MACs, in_features=384, out_features=192, bias=True)
            (act): GELU(0.0 M, 0.000% Params, 0.0 GMac, 0.000% MACs, )
            (drop): Dropout(0.0 M, 0.000% Params, 0.0 GMac, 0.000% MACs, p=0.0, inplace=False)
          )
          (norm_pre1): LayerNorm(0.0 M, 0.000% Params, 0.0 GMac, 0.000% MACs, (192,), eps=1e-06, elementwise_affine=True)
          (conv): Conv2d(0.002 M, 0.033% Params, 0.0 GMac, 0.035% MACs, 192, 192, kernel_size=(3, 3), stride=(1, 1), padding=(1, 1), groups=192)
        )
      )
      (2): Sequential(
        0.446 M, 7.757% Params, 0.088 GMac, 8.108% MACs, 
        (0): ShuffleData(0.0 M, 0.000% Params, 0.0 GMac, 0.000% MACs, )
        (1): Block(
          0.446 M, 7.757% Params, 0.088 GMac, 8.108% MACs, 
          (norm1): LayerNorm(0.0 M, 0.000% Params, 0.0 GMac, 0.000% MACs, (192,), eps=1e-06, elementwise_affine=True)
          (attn): Attention(
            0.148 M, 2.577% Params, 0.029 GMac, 2.691% MACs, 
            (qkv): Linear(0.111 M, 1.933% Params, 0.022 GMac, 2.018% MACs, in_features=192, out_features=576, bias=True)
            (attn_drop): Dropout(0.0 M, 0.000% Params, 0.0 GMac, 0.000% MACs, p=0.0, inplace=False)
            (proj): Linear(0.037 M, 0.644% Params, 0.007 GMac, 0.673% MACs, in_features=192, out_features=192, bias=True)
            (proj_drop): Dropout(0.0 M, 0.000% Params, 0.0 GMac, 0.000% MACs, p=0.0, inplace=False)
          )
          (drop_path): DropPath(0.0 M, 0.000% Params, 0.0 GMac, 0.000% MACs, )
          (norm2): LayerNorm(0.0 M, 0.000% Params, 0.0 GMac, 0.000% MACs, (192,), eps=1e-06, elementwise_affine=True)
          (mlp): Mlp(
            0.148 M, 2.574% Params, 0.029 GMac, 2.691% MACs, 
            (fc1): Linear(0.074 M, 1.288% Params, 0.015 GMac, 1.346% MACs, in_features=192, out_features=384, bias=True)
            (fc2): Linear(0.074 M, 1.285% Params, 0.015 GMac, 1.346% MACs, in_features=384, out_features=192, bias=True)
            (act): GELU(0.0 M, 0.000% Params, 0.0 GMac, 0.000% MACs, )
            (drop): Dropout(0.0 M, 0.000% Params, 0.0 GMac, 0.000% MACs, p=0.0, inplace=False)
          )
          (norm_post): LayerNorm(0.0 M, 0.000% Params, 0.0 GMac, 0.000% MACs, (192,), eps=1e-06, elementwise_affine=True)
          (mlp1): Mlp(
            0.148 M, 2.574% Params, 0.029 GMac, 2.691% MACs, 
            (fc1): Linear(0.074 M, 1.288% Params, 0.015 GMac, 1.346% MACs, in_features=192, out_features=384, bias=True)
            (fc2): Linear(0.074 M, 1.285% Params, 0.015 GMac, 1.346% MACs, in_features=384, out_features=192, bias=True)
            (act): GELU(0.0 M, 0.000% Params, 0.0 GMac, 0.000% MACs, )
            (drop): Dropout(0.0 M, 0.000% Params, 0.0 GMac, 0.000% MACs, p=0.0, inplace=False)
          )
          (norm_pre1): LayerNorm(0.0 M, 0.000% Params, 0.0 GMac, 0.000% MACs, (192,), eps=1e-06, elementwise_affine=True)
          (conv): Conv2d(0.002 M, 0.033% Params, 0.0 GMac, 0.035% MACs, 192, 192, kernel_size=(3, 3), stride=(1, 1), padding=(1, 1), groups=192)
        )
      )
      (3): Sequential(
        0.446 M, 7.757% Params, 0.088 GMac, 8.108% MACs, 
        (0): ShuffleData(0.0 M, 0.000% Params, 0.0 GMac, 0.000% MACs, )
        (1): Block(
          0.446 M, 7.757% Params, 0.088 GMac, 8.108% MACs, 
          (norm1): LayerNorm(0.0 M, 0.000% Params, 0.0 GMac, 0.000% MACs, (192,), eps=1e-06, elementwise_affine=True)
          (attn): Attention(
            0.148 M, 2.577% Params, 0.029 GMac, 2.691% MACs, 
            (qkv): Linear(0.111 M, 1.933% Params, 0.022 GMac, 2.018% MACs, in_features=192, out_features=576, bias=True)
            (attn_drop): Dropout(0.0 M, 0.000% Params, 0.0 GMac, 0.000% MACs, p=0.0, inplace=False)
            (proj): Linear(0.037 M, 0.644% Params, 0.007 GMac, 0.673% MACs, in_features=192, out_features=192, bias=True)
            (proj_drop): Dropout(0.0 M, 0.000% Params, 0.0 GMac, 0.000% MACs, p=0.0, inplace=False)
          )
          (drop_path): DropPath(0.0 M, 0.000% Params, 0.0 GMac, 0.000% MACs, )
          (norm2): LayerNorm(0.0 M, 0.000% Params, 0.0 GMac, 0.000% MACs, (192,), eps=1e-06, elementwise_affine=True)
          (mlp): Mlp(
            0.148 M, 2.574% Params, 0.029 GMac, 2.691% MACs, 
            (fc1): Linear(0.074 M, 1.288% Params, 0.015 GMac, 1.346% MACs, in_features=192, out_features=384, bias=True)
            (fc2): Linear(0.074 M, 1.285% Params, 0.015 GMac, 1.346% MACs, in_features=384, out_features=192, bias=True)
            (act): GELU(0.0 M, 0.000% Params, 0.0 GMac, 0.000% MACs, )
            (drop): Dropout(0.0 M, 0.000% Params, 0.0 GMac, 0.000% MACs, p=0.0, inplace=False)
          )
          (norm_post): LayerNorm(0.0 M, 0.000% Params, 0.0 GMac, 0.000% MACs, (192,), eps=1e-06, elementwise_affine=True)
          (mlp1): Mlp(
            0.148 M, 2.574% Params, 0.029 GMac, 2.691% MACs, 
            (fc1): Linear(0.074 M, 1.288% Params, 0.015 GMac, 1.346% MACs, in_features=192, out_features=384, bias=True)
            (fc2): Linear(0.074 M, 1.285% Params, 0.015 GMac, 1.346% MACs, in_features=384, out_features=192, bias=True)
            (act): GELU(0.0 M, 0.000% Params, 0.0 GMac, 0.000% MACs, )
            (drop): Dropout(0.0 M, 0.000% Params, 0.0 GMac, 0.000% MACs, p=0.0, inplace=False)
          )
          (norm_pre1): LayerNorm(0.0 M, 0.000% Params, 0.0 GMac, 0.000% MACs, (192,), eps=1e-06, elementwise_affine=True)
          (conv): Conv2d(0.002 M, 0.033% Params, 0.0 GMac, 0.035% MACs, 192, 192, kernel_size=(3, 3), stride=(1, 1), padding=(1, 1), groups=192)
        )
      )
      (4): Sequential(
        0.446 M, 7.757% Params, 0.088 GMac, 8.108% MACs, 
        (0): ShuffleData(0.0 M, 0.000% Params, 0.0 GMac, 0.000% MACs, )
        (1): Block(
          0.446 M, 7.757% Params, 0.088 GMac, 8.108% MACs, 
          (norm1): LayerNorm(0.0 M, 0.000% Params, 0.0 GMac, 0.000% MACs, (192,), eps=1e-06, elementwise_affine=True)
          (attn): Attention(
            0.148 M, 2.577% Params, 0.029 GMac, 2.691% MACs, 
            (qkv): Linear(0.111 M, 1.933% Params, 0.022 GMac, 2.018% MACs, in_features=192, out_features=576, bias=True)
            (attn_drop): Dropout(0.0 M, 0.000% Params, 0.0 GMac, 0.000% MACs, p=0.0, inplace=False)
            (proj): Linear(0.037 M, 0.644% Params, 0.007 GMac, 0.673% MACs, in_features=192, out_features=192, bias=True)
            (proj_drop): Dropout(0.0 M, 0.000% Params, 0.0 GMac, 0.000% MACs, p=0.0, inplace=False)
          )
          (drop_path): DropPath(0.0 M, 0.000% Params, 0.0 GMac, 0.000% MACs, )
          (norm2): LayerNorm(0.0 M, 0.000% Params, 0.0 GMac, 0.000% MACs, (192,), eps=1e-06, elementwise_affine=True)
          (mlp): Mlp(
            0.148 M, 2.574% Params, 0.029 GMac, 2.691% MACs, 
            (fc1): Linear(0.074 M, 1.288% Params, 0.015 GMac, 1.346% MACs, in_features=192, out_features=384, bias=True)
            (fc2): Linear(0.074 M, 1.285% Params, 0.015 GMac, 1.346% MACs, in_features=384, out_features=192, bias=True)
            (act): GELU(0.0 M, 0.000% Params, 0.0 GMac, 0.000% MACs, )
            (drop): Dropout(0.0 M, 0.000% Params, 0.0 GMac, 0.000% MACs, p=0.0, inplace=False)
          )
          (norm_post): LayerNorm(0.0 M, 0.000% Params, 0.0 GMac, 0.000% MACs, (192,), eps=1e-06, elementwise_affine=True)
          (mlp1): Mlp(
            0.148 M, 2.574% Params, 0.029 GMac, 2.691% MACs, 
            (fc1): Linear(0.074 M, 1.288% Params, 0.015 GMac, 1.346% MACs, in_features=192, out_features=384, bias=True)
            (fc2): Linear(0.074 M, 1.285% Params, 0.015 GMac, 1.346% MACs, in_features=384, out_features=192, bias=True)
            (act): GELU(0.0 M, 0.000% Params, 0.0 GMac, 0.000% MACs, )
            (drop): Dropout(0.0 M, 0.000% Params, 0.0 GMac, 0.000% MACs, p=0.0, inplace=False)
          )
          (norm_pre1): LayerNorm(0.0 M, 0.000% Params, 0.0 GMac, 0.000% MACs, (192,), eps=1e-06, elementwise_affine=True)
          (conv): Conv2d(0.002 M, 0.033% Params, 0.0 GMac, 0.035% MACs, 192, 192, kernel_size=(3, 3), stride=(1, 1), padding=(1, 1), groups=192)
        )
      )
      (5): Sequential(
        0.446 M, 7.757% Params, 0.088 GMac, 8.108% MACs, 
        (0): ShuffleData(0.0 M, 0.000% Params, 0.0 GMac, 0.000% MACs, )
        (1): Block(
          0.446 M, 7.757% Params, 0.088 GMac, 8.108% MACs, 
          (norm1): LayerNorm(0.0 M, 0.000% Params, 0.0 GMac, 0.000% MACs, (192,), eps=1e-06, elementwise_affine=True)
          (attn): Attention(
            0.148 M, 2.577% Params, 0.029 GMac, 2.691% MACs, 
            (qkv): Linear(0.111 M, 1.933% Params, 0.022 GMac, 2.018% MACs, in_features=192, out_features=576, bias=True)
            (attn_drop): Dropout(0.0 M, 0.000% Params, 0.0 GMac, 0.000% MACs, p=0.0, inplace=False)
            (proj): Linear(0.037 M, 0.644% Params, 0.007 GMac, 0.673% MACs, in_features=192, out_features=192, bias=True)
            (proj_drop): Dropout(0.0 M, 0.000% Params, 0.0 GMac, 0.000% MACs, p=0.0, inplace=False)
          )
          (drop_path): DropPath(0.0 M, 0.000% Params, 0.0 GMac, 0.000% MACs, )
          (norm2): LayerNorm(0.0 M, 0.000% Params, 0.0 GMac, 0.000% MACs, (192,), eps=1e-06, elementwise_affine=True)
          (mlp): Mlp(
            0.148 M, 2.574% Params, 0.029 GMac, 2.691% MACs, 
            (fc1): Linear(0.074 M, 1.288% Params, 0.015 GMac, 1.346% MACs, in_features=192, out_features=384, bias=True)
            (fc2): Linear(0.074 M, 1.285% Params, 0.015 GMac, 1.346% MACs, in_features=384, out_features=192, bias=True)
            (act): GELU(0.0 M, 0.000% Params, 0.0 GMac, 0.000% MACs, )
            (drop): Dropout(0.0 M, 0.000% Params, 0.0 GMac, 0.000% MACs, p=0.0, inplace=False)
          )
          (norm_post): LayerNorm(0.0 M, 0.000% Params, 0.0 GMac, 0.000% MACs, (192,), eps=1e-06, elementwise_affine=True)
          (mlp1): Mlp(
            0.148 M, 2.574% Params, 0.029 GMac, 2.691% MACs, 
            (fc1): Linear(0.074 M, 1.288% Params, 0.015 GMac, 1.346% MACs, in_features=192, out_features=384, bias=True)
            (fc2): Linear(0.074 M, 1.285% Params, 0.015 GMac, 1.346% MACs, in_features=384, out_features=192, bias=True)
            (act): GELU(0.0 M, 0.000% Params, 0.0 GMac, 0.000% MACs, )
            (drop): Dropout(0.0 M, 0.000% Params, 0.0 GMac, 0.000% MACs, p=0.0, inplace=False)
          )
          (norm_pre1): LayerNorm(0.0 M, 0.000% Params, 0.0 GMac, 0.000% MACs, (192,), eps=1e-06, elementwise_affine=True)
          (conv): Conv2d(0.002 M, 0.033% Params, 0.0 GMac, 0.035% MACs, 192, 192, kernel_size=(3, 3), stride=(1, 1), padding=(1, 1), groups=192)
        )
      )
      (6): Sequential(
        0.446 M, 7.757% Params, 0.088 GMac, 8.108% MACs, 
        (0): ShuffleData(0.0 M, 0.000% Params, 0.0 GMac, 0.000% MACs, )
        (1): Block(
          0.446 M, 7.757% Params, 0.088 GMac, 8.108% MACs, 
          (norm1): LayerNorm(0.0 M, 0.000% Params, 0.0 GMac, 0.000% MACs, (192,), eps=1e-06, elementwise_affine=True)
          (attn): Attention(
            0.148 M, 2.577% Params, 0.029 GMac, 2.691% MACs, 
            (qkv): Linear(0.111 M, 1.933% Params, 0.022 GMac, 2.018% MACs, in_features=192, out_features=576, bias=True)
            (attn_drop): Dropout(0.0 M, 0.000% Params, 0.0 GMac, 0.000% MACs, p=0.0, inplace=False)
            (proj): Linear(0.037 M, 0.644% Params, 0.007 GMac, 0.673% MACs, in_features=192, out_features=192, bias=True)
            (proj_drop): Dropout(0.0 M, 0.000% Params, 0.0 GMac, 0.000% MACs, p=0.0, inplace=False)
          )
          (drop_path): DropPath(0.0 M, 0.000% Params, 0.0 GMac, 0.000% MACs, )
          (norm2): LayerNorm(0.0 M, 0.000% Params, 0.0 GMac, 0.000% MACs, (192,), eps=1e-06, elementwise_affine=True)
          (mlp): Mlp(
            0.148 M, 2.574% Params, 0.029 GMac, 2.691% MACs, 
            (fc1): Linear(0.074 M, 1.288% Params, 0.015 GMac, 1.346% MACs, in_features=192, out_features=384, bias=True)
            (fc2): Linear(0.074 M, 1.285% Params, 0.015 GMac, 1.346% MACs, in_features=384, out_features=192, bias=True)
            (act): GELU(0.0 M, 0.000% Params, 0.0 GMac, 0.000% MACs, )
            (drop): Dropout(0.0 M, 0.000% Params, 0.0 GMac, 0.000% MACs, p=0.0, inplace=False)
          )
          (norm_post): LayerNorm(0.0 M, 0.000% Params, 0.0 GMac, 0.000% MACs, (192,), eps=1e-06, elementwise_affine=True)
          (mlp1): Mlp(
            0.148 M, 2.574% Params, 0.029 GMac, 2.691% MACs, 
            (fc1): Linear(0.074 M, 1.288% Params, 0.015 GMac, 1.346% MACs, in_features=192, out_features=384, bias=True)
            (fc2): Linear(0.074 M, 1.285% Params, 0.015 GMac, 1.346% MACs, in_features=384, out_features=192, bias=True)
            (act): GELU(0.0 M, 0.000% Params, 0.0 GMac, 0.000% MACs, )
            (drop): Dropout(0.0 M, 0.000% Params, 0.0 GMac, 0.000% MACs, p=0.0, inplace=False)
          )
          (norm_pre1): LayerNorm(0.0 M, 0.000% Params, 0.0 GMac, 0.000% MACs, (192,), eps=1e-06, elementwise_affine=True)
          (conv): Conv2d(0.002 M, 0.033% Params, 0.0 GMac, 0.035% MACs, 192, 192, kernel_size=(3, 3), stride=(1, 1), padding=(1, 1), groups=192)
        )
      )
      (7): Sequential(
        0.446 M, 7.757% Params, 0.088 GMac, 8.108% MACs, 
        (0): ShuffleData(0.0 M, 0.000% Params, 0.0 GMac, 0.000% MACs, )
        (1): Block(
          0.446 M, 7.757% Params, 0.088 GMac, 8.108% MACs, 
          (norm1): LayerNorm(0.0 M, 0.000% Params, 0.0 GMac, 0.000% MACs, (192,), eps=1e-06, elementwise_affine=True)
          (attn): Attention(
            0.148 M, 2.577% Params, 0.029 GMac, 2.691% MACs, 
            (qkv): Linear(0.111 M, 1.933% Params, 0.022 GMac, 2.018% MACs, in_features=192, out_features=576, bias=True)
            (attn_drop): Dropout(0.0 M, 0.000% Params, 0.0 GMac, 0.000% MACs, p=0.0, inplace=False)
            (proj): Linear(0.037 M, 0.644% Params, 0.007 GMac, 0.673% MACs, in_features=192, out_features=192, bias=True)
            (proj_drop): Dropout(0.0 M, 0.000% Params, 0.0 GMac, 0.000% MACs, p=0.0, inplace=False)
          )
          (drop_path): DropPath(0.0 M, 0.000% Params, 0.0 GMac, 0.000% MACs, )
          (norm2): LayerNorm(0.0 M, 0.000% Params, 0.0 GMac, 0.000% MACs, (192,), eps=1e-06, elementwise_affine=True)
          (mlp): Mlp(
            0.148 M, 2.574% Params, 0.029 GMac, 2.691% MACs, 
            (fc1): Linear(0.074 M, 1.288% Params, 0.015 GMac, 1.346% MACs, in_features=192, out_features=384, bias=True)
            (fc2): Linear(0.074 M, 1.285% Params, 0.015 GMac, 1.346% MACs, in_features=384, out_features=192, bias=True)
            (act): GELU(0.0 M, 0.000% Params, 0.0 GMac, 0.000% MACs, )
            (drop): Dropout(0.0 M, 0.000% Params, 0.0 GMac, 0.000% MACs, p=0.0, inplace=False)
          )
          (norm_post): LayerNorm(0.0 M, 0.000% Params, 0.0 GMac, 0.000% MACs, (192,), eps=1e-06, elementwise_affine=True)
          (mlp1): Mlp(
            0.148 M, 2.574% Params, 0.029 GMac, 2.691% MACs, 
            (fc1): Linear(0.074 M, 1.288% Params, 0.015 GMac, 1.346% MACs, in_features=192, out_features=384, bias=True)
            (fc2): Linear(0.074 M, 1.285% Params, 0.015 GMac, 1.346% MACs, in_features=384, out_features=192, bias=True)
            (act): GELU(0.0 M, 0.000% Params, 0.0 GMac, 0.000% MACs, )
            (drop): Dropout(0.0 M, 0.000% Params, 0.0 GMac, 0.000% MACs, p=0.0, inplace=False)
          )
          (norm_pre1): LayerNorm(0.0 M, 0.000% Params, 0.0 GMac, 0.000% MACs, (192,), eps=1e-06, elementwise_affine=True)
          (conv): Conv2d(0.002 M, 0.033% Params, 0.0 GMac, 0.035% MACs, 192, 192, kernel_size=(3, 3), stride=(1, 1), padding=(1, 1), groups=192)
        )
      )
      (8): Sequential(
        0.446 M, 7.757% Params, 0.088 GMac, 8.108% MACs, 
        (0): ShuffleData(0.0 M, 0.000% Params, 0.0 GMac, 0.000% MACs, )
        (1): Block(
          0.446 M, 7.757% Params, 0.088 GMac, 8.108% MACs, 
          (norm1): LayerNorm(0.0 M, 0.000% Params, 0.0 GMac, 0.000% MACs, (192,), eps=1e-06, elementwise_affine=True)
          (attn): Attention(
            0.148 M, 2.577% Params, 0.029 GMac, 2.691% MACs, 
            (qkv): Linear(0.111 M, 1.933% Params, 0.022 GMac, 2.018% MACs, in_features=192, out_features=576, bias=True)
            (attn_drop): Dropout(0.0 M, 0.000% Params, 0.0 GMac, 0.000% MACs, p=0.0, inplace=False)
            (proj): Linear(0.037 M, 0.644% Params, 0.007 GMac, 0.673% MACs, in_features=192, out_features=192, bias=True)
            (proj_drop): Dropout(0.0 M, 0.000% Params, 0.0 GMac, 0.000% MACs, p=0.0, inplace=False)
          )
          (drop_path): DropPath(0.0 M, 0.000% Params, 0.0 GMac, 0.000% MACs, )
          (norm2): LayerNorm(0.0 M, 0.000% Params, 0.0 GMac, 0.000% MACs, (192,), eps=1e-06, elementwise_affine=True)
          (mlp): Mlp(
            0.148 M, 2.574% Params, 0.029 GMac, 2.691% MACs, 
            (fc1): Linear(0.074 M, 1.288% Params, 0.015 GMac, 1.346% MACs, in_features=192, out_features=384, bias=True)
            (fc2): Linear(0.074 M, 1.285% Params, 0.015 GMac, 1.346% MACs, in_features=384, out_features=192, bias=True)
            (act): GELU(0.0 M, 0.000% Params, 0.0 GMac, 0.000% MACs, )
            (drop): Dropout(0.0 M, 0.000% Params, 0.0 GMac, 0.000% MACs, p=0.0, inplace=False)
          )
          (norm_post): LayerNorm(0.0 M, 0.000% Params, 0.0 GMac, 0.000% MACs, (192,), eps=1e-06, elementwise_affine=True)
          (mlp1): Mlp(
            0.148 M, 2.574% Params, 0.029 GMac, 2.691% MACs, 
            (fc1): Linear(0.074 M, 1.288% Params, 0.015 GMac, 1.346% MACs, in_features=192, out_features=384, bias=True)
            (fc2): Linear(0.074 M, 1.285% Params, 0.015 GMac, 1.346% MACs, in_features=384, out_features=192, bias=True)
            (act): GELU(0.0 M, 0.000% Params, 0.0 GMac, 0.000% MACs, )
            (drop): Dropout(0.0 M, 0.000% Params, 0.0 GMac, 0.000% MACs, p=0.0, inplace=False)
          )
          (norm_pre1): LayerNorm(0.0 M, 0.000% Params, 0.0 GMac, 0.000% MACs, (192,), eps=1e-06, elementwise_affine=True)
          (conv): Conv2d(0.002 M, 0.033% Params, 0.0 GMac, 0.035% MACs, 192, 192, kernel_size=(3, 3), stride=(1, 1), padding=(1, 1), groups=192)
        )
      )
      (9): Sequential(
        0.446 M, 7.757% Params, 0.088 GMac, 8.108% MACs, 
        (0): ShuffleData(0.0 M, 0.000% Params, 0.0 GMac, 0.000% MACs, )
        (1): Block(
          0.446 M, 7.757% Params, 0.088 GMac, 8.108% MACs, 
          (norm1): LayerNorm(0.0 M, 0.000% Params, 0.0 GMac, 0.000% MACs, (192,), eps=1e-06, elementwise_affine=True)
          (attn): Attention(
            0.148 M, 2.577% Params, 0.029 GMac, 2.691% MACs, 
            (qkv): Linear(0.111 M, 1.933% Params, 0.022 GMac, 2.018% MACs, in_features=192, out_features=576, bias=True)
            (attn_drop): Dropout(0.0 M, 0.000% Params, 0.0 GMac, 0.000% MACs, p=0.0, inplace=False)
            (proj): Linear(0.037 M, 0.644% Params, 0.007 GMac, 0.673% MACs, in_features=192, out_features=192, bias=True)
            (proj_drop): Dropout(0.0 M, 0.000% Params, 0.0 GMac, 0.000% MACs, p=0.0, inplace=False)
          )
          (drop_path): DropPath(0.0 M, 0.000% Params, 0.0 GMac, 0.000% MACs, )
          (norm2): LayerNorm(0.0 M, 0.000% Params, 0.0 GMac, 0.000% MACs, (192,), eps=1e-06, elementwise_affine=True)
          (mlp): Mlp(
            0.148 M, 2.574% Params, 0.029 GMac, 2.691% MACs, 
            (fc1): Linear(0.074 M, 1.288% Params, 0.015 GMac, 1.346% MACs, in_features=192, out_features=384, bias=True)
            (fc2): Linear(0.074 M, 1.285% Params, 0.015 GMac, 1.346% MACs, in_features=384, out_features=192, bias=True)
            (act): GELU(0.0 M, 0.000% Params, 0.0 GMac, 0.000% MACs, )
            (drop): Dropout(0.0 M, 0.000% Params, 0.0 GMac, 0.000% MACs, p=0.0, inplace=False)
          )
          (norm_post): LayerNorm(0.0 M, 0.000% Params, 0.0 GMac, 0.000% MACs, (192,), eps=1e-06, elementwise_affine=True)
          (mlp1): Mlp(
            0.148 M, 2.574% Params, 0.029 GMac, 2.691% MACs, 
            (fc1): Linear(0.074 M, 1.288% Params, 0.015 GMac, 1.346% MACs, in_features=192, out_features=384, bias=True)
            (fc2): Linear(0.074 M, 1.285% Params, 0.015 GMac, 1.346% MACs, in_features=384, out_features=192, bias=True)
            (act): GELU(0.0 M, 0.000% Params, 0.0 GMac, 0.000% MACs, )
            (drop): Dropout(0.0 M, 0.000% Params, 0.0 GMac, 0.000% MACs, p=0.0, inplace=False)
          )
          (norm_pre1): LayerNorm(0.0 M, 0.000% Params, 0.0 GMac, 0.000% MACs, (192,), eps=1e-06, elementwise_affine=True)
          (conv): Conv2d(0.002 M, 0.033% Params, 0.0 GMac, 0.035% MACs, 192, 192, kernel_size=(3, 3), stride=(1, 1), padding=(1, 1), groups=192)
        )
      )
      (10): Sequential(
        0.446 M, 7.757% Params, 0.088 GMac, 8.108% MACs, 
        (0): ShuffleData(0.0 M, 0.000% Params, 0.0 GMac, 0.000% MACs, )
        (1): Block(
          0.446 M, 7.757% Params, 0.088 GMac, 8.108% MACs, 
          (norm1): LayerNorm(0.0 M, 0.000% Params, 0.0 GMac, 0.000% MACs, (192,), eps=1e-06, elementwise_affine=True)
          (attn): Attention(
            0.148 M, 2.577% Params, 0.029 GMac, 2.691% MACs, 
            (qkv): Linear(0.111 M, 1.933% Params, 0.022 GMac, 2.018% MACs, in_features=192, out_features=576, bias=True)
            (attn_drop): Dropout(0.0 M, 0.000% Params, 0.0 GMac, 0.000% MACs, p=0.0, inplace=False)
            (proj): Linear(0.037 M, 0.644% Params, 0.007 GMac, 0.673% MACs, in_features=192, out_features=192, bias=True)
            (proj_drop): Dropout(0.0 M, 0.000% Params, 0.0 GMac, 0.000% MACs, p=0.0, inplace=False)
          )
          (drop_path): DropPath(0.0 M, 0.000% Params, 0.0 GMac, 0.000% MACs, )
          (norm2): LayerNorm(0.0 M, 0.000% Params, 0.0 GMac, 0.000% MACs, (192,), eps=1e-06, elementwise_affine=True)
          (mlp): Mlp(
            0.148 M, 2.574% Params, 0.029 GMac, 2.691% MACs, 
            (fc1): Linear(0.074 M, 1.288% Params, 0.015 GMac, 1.346% MACs, in_features=192, out_features=384, bias=True)
            (fc2): Linear(0.074 M, 1.285% Params, 0.015 GMac, 1.346% MACs, in_features=384, out_features=192, bias=True)
            (act): GELU(0.0 M, 0.000% Params, 0.0 GMac, 0.000% MACs, )
            (drop): Dropout(0.0 M, 0.000% Params, 0.0 GMac, 0.000% MACs, p=0.0, inplace=False)
          )
          (norm_post): LayerNorm(0.0 M, 0.000% Params, 0.0 GMac, 0.000% MACs, (192,), eps=1e-06, elementwise_affine=True)
          (mlp1): Mlp(
            0.148 M, 2.574% Params, 0.029 GMac, 2.691% MACs, 
            (fc1): Linear(0.074 M, 1.288% Params, 0.015 GMac, 1.346% MACs, in_features=192, out_features=384, bias=True)
            (fc2): Linear(0.074 M, 1.285% Params, 0.015 GMac, 1.346% MACs, in_features=384, out_features=192, bias=True)
            (act): GELU(0.0 M, 0.000% Params, 0.0 GMac, 0.000% MACs, )
            (drop): Dropout(0.0 M, 0.000% Params, 0.0 GMac, 0.000% MACs, p=0.0, inplace=False)
          )
          (norm_pre1): LayerNorm(0.0 M, 0.000% Params, 0.0 GMac, 0.000% MACs, (192,), eps=1e-06, elementwise_affine=True)
          (conv): Conv2d(0.002 M, 0.033% Params, 0.0 GMac, 0.035% MACs, 192, 192, kernel_size=(3, 3), stride=(1, 1), padding=(1, 1), groups=192)
        )
      )
      (11): Sequential(
        0.446 M, 7.757% Params, 0.088 GMac, 8.108% MACs, 
        (0): ShuffleData(0.0 M, 0.000% Params, 0.0 GMac, 0.000% MACs, )
        (1): Block(
          0.446 M, 7.757% Params, 0.088 GMac, 8.108% MACs, 
          (norm1): LayerNorm(0.0 M, 0.000% Params, 0.0 GMac, 0.000% MACs, (192,), eps=1e-06, elementwise_affine=True)
          (attn): Attention(
            0.148 M, 2.577% Params, 0.029 GMac, 2.691% MACs, 
            (qkv): Linear(0.111 M, 1.933% Params, 0.022 GMac, 2.018% MACs, in_features=192, out_features=576, bias=True)
            (attn_drop): Dropout(0.0 M, 0.000% Params, 0.0 GMac, 0.000% MACs, p=0.0, inplace=False)
            (proj): Linear(0.037 M, 0.644% Params, 0.007 GMac, 0.673% MACs, in_features=192, out_features=192, bias=True)
            (proj_drop): Dropout(0.0 M, 0.000% Params, 0.0 GMac, 0.000% MACs, p=0.0, inplace=False)
          )
          (drop_path): DropPath(0.0 M, 0.000% Params, 0.0 GMac, 0.000% MACs, )
          (norm2): LayerNorm(0.0 M, 0.000% Params, 0.0 GMac, 0.000% MACs, (192,), eps=1e-06, elementwise_affine=True)
          (mlp): Mlp(
            0.148 M, 2.574% Params, 0.029 GMac, 2.691% MACs, 
            (fc1): Linear(0.074 M, 1.288% Params, 0.015 GMac, 1.346% MACs, in_features=192, out_features=384, bias=True)
            (fc2): Linear(0.074 M, 1.285% Params, 0.015 GMac, 1.346% MACs, in_features=384, out_features=192, bias=True)
            (act): GELU(0.0 M, 0.000% Params, 0.0 GMac, 0.000% MACs, )
            (drop): Dropout(0.0 M, 0.000% Params, 0.0 GMac, 0.000% MACs, p=0.0, inplace=False)
          )
          (norm_post): LayerNorm(0.0 M, 0.000% Params, 0.0 GMac, 0.000% MACs, (192,), eps=1e-06, elementwise_affine=True)
          (mlp1): Mlp(
            0.148 M, 2.574% Params, 0.029 GMac, 2.691% MACs, 
            (fc1): Linear(0.074 M, 1.288% Params, 0.015 GMac, 1.346% MACs, in_features=192, out_features=384, bias=True)
            (fc2): Linear(0.074 M, 1.285% Params, 0.015 GMac, 1.346% MACs, in_features=384, out_features=192, bias=True)
            (act): GELU(0.0 M, 0.000% Params, 0.0 GMac, 0.000% MACs, )
            (drop): Dropout(0.0 M, 0.000% Params, 0.0 GMac, 0.000% MACs, p=0.0, inplace=False)
          )
          (norm_pre1): LayerNorm(0.0 M, 0.000% Params, 0.0 GMac, 0.000% MACs, (192,), eps=1e-06, elementwise_affine=True)
          (conv): Conv2d(0.002 M, 0.033% Params, 0.0 GMac, 0.035% MACs, 192, 192, kernel_size=(3, 3), stride=(1, 1), padding=(1, 1), groups=192)
        )
      )
    )
    (norm): LayerNorm(0.0 M, 0.000% Params, 0.0 GMac, 0.000% MACs, (192,), eps=1e-06, elementwise_affine=True)
    (head): Linear(0.193 M, 3.355% Params, 0.0 GMac, 0.018% MACs, in_features=192, out_features=1000, bias=True)
  )
)
('1.08 GMac', '5.75 M')
4
Start training
Epoch: [0]  [   0/1251]  eta: 3:40:38  lr: 0.000001  loss: 6.9406 (6.9406)  time: 10.5821  data: 8.0545  max mem: 9397
Epoch: [0]  [ 100/1251]  eta: 0:13:28  lr: 0.000001  loss: 6.9371 (6.9430)  time: 0.5941  data: 0.0004  max mem: 9465
Epoch: [0]  [ 200/1251]  eta: 0:11:21  lr: 0.000001  loss: 6.9411 (6.9434)  time: 0.5957  data: 0.0004  max mem: 9465
…
