…
it_tiny_patch16_224', model_ema=True, model_ema_decay=0.99996, model_ema_force_cpu=False, momentum=0.9, num_workers=10, opt='adamw', opt_betas=None, opt_eps=1e-08, output_dir='/scratch/cluster/cygong/vision_transformer_best', patience_epochs=10, pin_mem=True, rank=0, recount=1, remode='pixel', repeated_aug=True, reprob=0.25, resplit=False, resume='', sched='cosine', seed=0, smoothing=0.1, start_epoch=0, train_interpolation='bicubic', warmup_epochs=5, warmup_lr=1e-06, weight_decay=0.05, world_size=4)
Creating model: deit_tiny_patch16_224
VisionTransformer(
  (patch_embed): PatchEmbed(
    (proj): Conv2d(3, 192, kernel_size=(16, 16), stride=(16, 16))
  )
  (pos_drop): Dropout(p=0.0, inplace=False)
  (blocks): ModuleList(
    (0): Block(
      (norm1): LayerNorm((192,), eps=1e-06, elementwise_affine=True)
      (attn): Attention(
        (qkv): Linear(in_features=192, out_features=576, bias=True)
        (attn_drop): Dropout(p=0.0, inplace=False)
        (proj): Linear(in_features=192, out_features=192, bias=True)
        (proj_drop): Dropout(p=0.0, inplace=False)
      )
      (drop_path): Identity()
      (norm2): LayerNorm((192,), eps=1e-06, elementwise_affine=True)
      (mlp): Mlp(
        (fc1): Linear(in_features=192, out_features=384, bias=True)
        (act): GELU()
        (fc2): Linear(in_features=384, out_features=192, bias=True)
        (drop): Dropout(p=0.0, inplace=False)
      )
      (norm_post): LayerNorm((192,), eps=1e-06, elementwise_affine=True)
      (mlp1): Mlp(
        (fc1): Linear(in_features=192, out_features=384, bias=True)
        (act): GELU()
        (fc2): Linear(in_features=384, out_features=192, bias=True)
        (drop): Dropout(p=0.0, inplace=False)
      )
      (norm_pre1): LayerNorm((192,), eps=1e-06, elementwise_affine=True)
      (conv): Conv2d(192, 192, kernel_size=(3, 3), stride=(1, 1), padding=(1, 1), groups=192)
    )
    (1): Block(
      (norm1): LayerNorm((192,), eps=1e-06, elementwise_affine=True)
      (attn): Attention(
        (qkv): Linear(in_features=192, out_features=576, bias=True)
        (attn_drop): Dropout(p=0.0, inplace=False)
        (proj): Linear(in_features=192, out_features=192, bias=True)
        (proj_drop): Dropout(p=0.0, inplace=False)
      )
      (drop_path): DropPath()
      (norm2): LayerNorm((192,), eps=1e-06, elementwise_affine=True)
      (mlp): Mlp(
        (fc1): Linear(in_features=192, out_features=384, bias=True)
        (act): GELU()
        (fc2): Linear(in_features=384, out_features=192, bias=True)
        (drop): Dropout(p=0.0, inplace=False)
      )
      (norm_post): LayerNorm((192,), eps=1e-06, elementwise_affine=True)
      (mlp1): Mlp(
        (fc1): Linear(in_features=192, out_features=384, bias=True)
        (act): GELU()
        (fc2): Linear(in_features=384, out_features=192, bias=True)
        (drop): Dropout(p=0.0, inplace=False)
      )
      (norm_pre1): LayerNorm((192,), eps=1e-06, elementwise_affine=True)
      (conv): Conv2d(192, 192, kernel_size=(3, 3), stride=(1, 1), padding=(1, 1), groups=192)
    )
    (2): Block(
      (norm1): LayerNorm((192,), eps=1e-06, elementwise_affine=True)
      (attn): Attention(
        (qkv): Linear(in_features=192, out_features=576, bias=True)
        (attn_drop): Dropout(p=0.0, inplace=False)
        (proj): Linear(in_features=192, out_features=192, bias=True)
        (proj_drop): Dropout(p=0.0, inplace=False)
      )
      (drop_path): DropPath()
      (norm2): LayerNorm((192,), eps=1e-06, elementwise_affine=True)
      (mlp): Mlp(
        (fc1): Linear(in_features=192, out_features=384, bias=True)
        (act): GELU()
        (fc2): Linear(in_features=384, out_features=192, bias=True)
        (drop): Dropout(p=0.0, inplace=False)
      )
      (norm_post): LayerNorm((192,), eps=1e-06, elementwise_affine=True)
      (mlp1): Mlp(
        (fc1): Linear(in_features=192, out_features=384, bias=True)
        (act): GELU()
        (fc2): Linear(in_features=384, out_features=192, bias=True)
        (drop): Dropout(p=0.0, inplace=False)
      )
      (norm_pre1): LayerNorm((192,), eps=1e-06, elementwise_affine=True)
      (conv): Conv2d(192, 192, kernel_size=(3, 3), stride=(1, 1), padding=(1, 1), groups=192)
    )
    (3): Block(
      (norm1): LayerNorm((192,), eps=1e-06, elementwise_affine=True)
      (attn): Attention(
        (qkv): Linear(in_features=192, out_features=576, bias=True)
        (attn_drop): Dropout(p=0.0, inplace=False)
        (proj): Linear(in_features=192, out_features=192, bias=True)
        (proj_drop): Dropout(p=0.0, inplace=False)
      )
      (drop_path): DropPath()
      (norm2): LayerNorm((192,), eps=1e-06, elementwise_affine=True)
      (mlp): Mlp(
        (fc1): Linear(in_features=192, out_features=384, bias=True)
        (act): GELU()
        (fc2): Linear(in_features=384, out_features=192, bias=True)
        (drop): Dropout(p=0.0, inplace=False)
      )
      (norm_post): LayerNorm((192,), eps=1e-06, elementwise_affine=True)
      (mlp1): Mlp(
        (fc1): Linear(in_features=192, out_features=384, bias=True)
        (act): GELU()
        (fc2): Linear(in_features=384, out_features=192, bias=True)
        (drop): Dropout(p=0.0, inplace=False)
      )
      (norm_pre1): LayerNorm((192,), eps=1e-06, elementwise_affine=True)
      (conv): Conv2d(192, 192, kernel_size=(3, 3), stride=(1, 1), padding=(1, 1), groups=192)
    )
    (4): Block(
      (norm1): LayerNorm((192,), eps=1e-06, elementwise_affine=True)
      (attn): Attention(
        (qkv): Linear(in_features=192, out_features=576, bias=True)
        (attn_drop): Dropout(p=0.0, inplace=False)
        (proj): Linear(in_features=192, out_features=192, bias=True)
        (proj_drop): Dropout(p=0.0, inplace=False)
      )
      (drop_path): DropPath()
      (norm2): LayerNorm((192,), eps=1e-06, elementwise_affine=True)
      (mlp): Mlp(
        (fc1): Linear(in_features=192, out_features=384, bias=True)
        (act): GELU()
        (fc2): Linear(in_features=384, out_features=192, bias=True)
        (drop): Dropout(p=0.0, inplace=False)
      )
      (norm_post): LayerNorm((192,), eps=1e-06, elementwise_affine=True)
      (mlp1): Mlp(
        (fc1): Linear(in_features=192, out_features=384, bias=True)
        (act): GELU()
        (fc2): Linear(in_features=384, out_features=192, bias=True)
        (drop): Dropout(p=0.0, inplace=False)
      )
      (norm_pre1): LayerNorm((192,), eps=1e-06, elementwise_affine=True)
      (conv): Conv2d(192, 192, kernel_size=(3, 3), stride=(1, 1), padding=(1, 1), groups=192)
    )
    (5): Block(
      (norm1): LayerNorm((192,), eps=1e-06, elementwise_affine=True)
      (attn): Attention(
        (qkv): Linear(in_features=192, out_features=576, bias=True)
        (attn_drop): Dropout(p=0.0, inplace=False)
        (proj): Linear(in_features=192, out_features=192, bias=True)
        (proj_drop): Dropout(p=0.0, inplace=False)
      )
      (drop_path): DropPath()
      (norm2): LayerNorm((192,), eps=1e-06, elementwise_affine=True)
      (mlp): Mlp(
        (fc1): Linear(in_features=192, out_features=384, bias=True)
        (act): GELU()
        (fc2): Linear(in_features=384, out_features=192, bias=True)
        (drop): Dropout(p=0.0, inplace=False)
      )
      (norm_post): LayerNorm((192,), eps=1e-06, elementwise_affine=True)
      (mlp1): Mlp(
        (fc1): Linear(in_features=192, out_features=384, bias=True)
        (act): GELU()
        (fc2): Linear(in_features=384, out_features=192, bias=True)
        (drop): Dropout(p=0.0, inplace=False)
      )
      (norm_pre1): LayerNorm((192,), eps=1e-06, elementwise_affine=True)
      (conv): Conv2d(192, 192, kernel_size=(3, 3), stride=(1, 1), padding=(1, 1), groups=192)
    )
    (6): Block(
      (norm1): LayerNorm((192,), eps=1e-06, elementwise_affine=True)
      (attn): Attention(
        (qkv): Linear(in_features=192, out_features=576, bias=True)
        (attn_drop): Dropout(p=0.0, inplace=False)
        (proj): Linear(in_features=192, out_features=192, bias=True)
        (proj_drop): Dropout(p=0.0, inplace=False)
      )
      (drop_path): DropPath()
      (norm2): LayerNorm((192,), eps=1e-06, elementwise_affine=True)
      (mlp): Mlp(
        (fc1): Linear(in_features=192, out_features=384, bias=True)
        (act): GELU()
        (fc2): Linear(in_features=384, out_features=192, bias=True)
        (drop): Dropout(p=0.0, inplace=False)
      )
      (norm_post): LayerNorm((192,), eps=1e-06, elementwise_affine=True)
      (mlp1): Mlp(
        (fc1): Linear(in_features=192, out_features=384, bias=True)
        (act): GELU()
        (fc2): Linear(in_features=384, out_features=192, bias=True)
        (drop): Dropout(p=0.0, inplace=False)
      )
      (norm_pre1): LayerNorm((192,), eps=1e-06, elementwise_affine=True)
      (conv): Conv2d(192, 192, kernel_size=(3, 3), stride=(1, 1), padding=(1, 1), groups=192)
    )
    (7): Block(
      (norm1): LayerNorm((192,), eps=1e-06, elementwise_affine=True)
      (attn): Attention(
        (qkv): Linear(in_features=192, out_features=576, bias=True)
        (attn_drop): Dropout(p=0.0, inplace=False)
        (proj): Linear(in_features=192, out_features=192, bias=True)
        (proj_drop): Dropout(p=0.0, inplace=False)
      )
      (drop_path): DropPath()
      (norm2): LayerNorm((192,), eps=1e-06, elementwise_affine=True)
      (mlp): Mlp(
        (fc1): Linear(in_features=192, out_features=384, bias=True)
        (act): GELU()
        (fc2): Linear(in_features=384, out_features=192, bias=True)
        (drop): Dropout(p=0.0, inplace=False)
      )
      (norm_post): LayerNorm((192,), eps=1e-06, elementwise_affine=True)
      (mlp1): Mlp(
        (fc1): Linear(in_features=192, out_features=384, bias=True)
        (act): GELU()
        (fc2): Linear(in_features=384, out_features=192, bias=True)
        (drop): Dropout(p=0.0, inplace=False)
      )
      (norm_pre1): LayerNorm((192,), eps=1e-06, elementwise_affine=True)
      (conv): Conv2d(192, 192, kernel_size=(3, 3), stride=(1, 1), padding=(1, 1), groups=192)
    )
    (8): Block(
      (norm1): LayerNorm((192,), eps=1e-06, elementwise_affine=True)
      (attn): Attention(
        (qkv): Linear(in_features=192, out_features=576, bias=True)
        (attn_drop): Dropout(p=0.0, inplace=False)
        (proj): Linear(in_features=192, out_features=192, bias=True)
        (proj_drop): Dropout(p=0.0, inplace=False)
      )
      (drop_path): DropPath()
      (norm2): LayerNorm((192,), eps=1e-06, elementwise_affine=True)
      (mlp): Mlp(
        (fc1): Linear(in_features=192, out_features=384, bias=True)
        (act): GELU()
        (fc2): Linear(in_features=384, out_features=192, bias=True)
        (drop): Dropout(p=0.0, inplace=False)
      )
      (norm_post): LayerNorm((192,), eps=1e-06, elementwise_affine=True)
      (mlp1): Mlp(
        (fc1): Linear(in_features=192, out_features=384, bias=True)
        (act): GELU()
        (fc2): Linear(in_features=384, out_features=192, bias=True)
        (drop): Dropout(p=0.0, inplace=False)
      )
      (norm_pre1): LayerNorm((192,), eps=1e-06, elementwise_affine=True)
      (conv): Conv2d(192, 192, kernel_size=(3, 3), stride=(1, 1), padding=(1, 1), groups=192)
    )
    (9): Block(
      (norm1): LayerNorm((192,), eps=1e-06, elementwise_affine=True)
      (attn): Attention(
        (qkv): Linear(in_features=192, out_features=576, bias=True)
        (attn_drop): Dropout(p=0.0, inplace=False)
        (proj): Linear(in_features=192, out_features=192, bias=True)
        (proj_drop): Dropout(p=0.0, inplace=False)
      )
      (drop_path): DropPath()
      (norm2): LayerNorm((192,), eps=1e-06, elementwise_affine=True)
      (mlp): Mlp(
        (fc1): Linear(in_features=192, out_features=384, bias=True)
        (act): GELU()
        (fc2): Linear(in_features=384, out_features=192, bias=True)
        (drop): Dropout(p=0.0, inplace=False)
      )
      (norm_post): LayerNorm((192,), eps=1e-06, elementwise_affine=True)
      (mlp1): Mlp(
        (fc1): Linear(in_features=192, out_features=384, bias=True)
        (act): GELU()
        (fc2): Linear(in_features=384, out_features=192, bias=True)
        (drop): Dropout(p=0.0, inplace=False)
      )
      (norm_pre1): LayerNorm((192,), eps=1e-06, elementwise_affine=True)
      (conv): Conv2d(192, 192, kernel_size=(3, 3), stride=(1, 1), padding=(1, 1), groups=192)
    )
    (10): Block(
      (norm1): LayerNorm((192,), eps=1e-06, elementwise_affine=True)
      (attn): Attention(
        (qkv): Linear(in_features=192, out_features=576, bias=True)
        (attn_drop): Dropout(p=0.0, inplace=False)
        (proj): Linear(in_features=192, out_features=192, bias=True)
        (proj_drop): Dropout(p=0.0, inplace=False)
      )
      (drop_path): DropPath()
      (norm2): LayerNorm((192,), eps=1e-06, elementwise_affine=True)
      (mlp): Mlp(
        (fc1): Linear(in_features=192, out_features=384, bias=True)
        (act): GELU()
        (fc2): Linear(in_features=384, out_features=192, bias=True)
        (drop): Dropout(p=0.0, inplace=False)
      )
      (norm_post): LayerNorm((192,), eps=1e-06, elementwise_affine=True)
      (mlp1): Mlp(
        (fc1): Linear(in_features=192, out_features=384, bias=True)
        (act): GELU()
        (fc2): Linear(in_features=384, out_features=192, bias=True)
        (drop): Dropout(p=0.0, inplace=False)
      )
      (norm_pre1): LayerNorm((192,), eps=1e-06, elementwise_affine=True)
      (conv): Conv2d(192, 192, kernel_size=(3, 3), stride=(1, 1), padding=(1, 1), groups=192)
    )
    (11): Block(
      (norm1): LayerNorm((192,), eps=1e-06, elementwise_affine=True)
      (attn): Attention(
        (qkv): Linear(in_features=192, out_features=576, bias=True)
        (attn_drop): Dropout(p=0.0, inplace=False)
        (proj): Linear(in_features=192, out_features=192, bias=True)
        (proj_drop): Dropout(p=0.0, inplace=False)
      )
      (drop_path): DropPath()
      (norm2): LayerNorm((192,), eps=1e-06, elementwise_affine=True)
      (mlp): Mlp(
        (fc1): Linear(in_features=192, out_features=384, bias=True)
        (act): GELU()
        (fc2): Linear(in_features=384, out_features=192, bias=True)
        (drop): Dropout(p=0.0, inplace=False)
      )
      (norm_post): LayerNorm((192,), eps=1e-06, elementwise_affine=True)
      (mlp1): Mlp(
        (fc1): Linear(in_features=192, out_features=384, bias=True)
        (act): GELU()
        (fc2): Linear(in_features=384, out_features=192, bias=True)
        (drop): Dropout(p=0.0, inplace=False)
      )
      (norm_pre1): LayerNorm((192,), eps=1e-06, elementwise_affine=True)
      (conv): Conv2d(192, 192, kernel_size=(3, 3), stride=(1, 1), padding=(1, 1), groups=192)
    )
  )
  (norm): LayerNorm((192,), eps=1e-06, elementwise_affine=True)
  (head): Linear(in_features=192, out_features=1000, bias=True)
)
number of params: 5751976
Warning: module PatchEmbed is treated as a zero-op.
Warning: module Dropout is treated as a zero-op.
Warning: module LayerNorm is treated as a zero-op.
Warning: module Attention is treated as a zero-op.
Warning: module Identity is treated as a zero-op.
Warning: module GELU is treated as a zero-op.
Warning: module Mlp is treated as a zero-op.
Warning: module Block is treated as a zero-op.
Warning: module DropPath is treated as a zero-op.
Warning: module VisionTransformer is treated as a zero-op.
Warning: module DistributedDataParallel is treated as a zero-op.
DistributedDataParallel(
  5.695 M, 99.012% Params, 1.079 GMac, 100.000% MACs, 
  (module): VisionTransformer(
    5.695 M, 99.012% Params, 1.079 GMac, 100.000% MACs, 
    (patch_embed): PatchEmbed(
      0.148 M, 2.567% Params, 0.029 GMac, 2.681% MACs, 
      (proj): Conv2d(0.148 M, 2.567% Params, 0.029 GMac, 2.681% MACs, 3, 192, kernel_size=(16, 16), stride=(16, 16))
    )
    (pos_drop): Dropout(0.0 M, 0.000% Params, 0.0 GMac, 0.000% MACs, p=0.0, inplace=False)
    (blocks): ModuleList(
      5.354 M, 93.090% Params, 1.05 GMac, 97.301% MACs, 
      (0): Block(
        0.446 M, 7.757% Params, 0.088 GMac, 8.108% MACs, 
        (norm1): LayerNorm(0.0 M, 0.000% Params, 0.0 GMac, 0.000% MACs, (192,), eps=1e-06, elementwise_affine=True)
        (attn): Attention(
          0.148 M, 2.577% Params, 0.029 GMac, 2.691% MACs, 
          (qkv): Linear(0.111 M, 1.933% Params, 0.022 GMac, 2.018% MACs, in_features=192, out_features=576, bias=True)
          (attn_drop): Dropout(0.0 M, 0.000% Params, 0.0 GMac, 0.000% MACs, p=0.0, inplace=False)
          (proj): Linear(0.037 M, 0.644% Params, 0.007 GMac, 0.673% MACs, in_features=192, out_features=192, bias=True)
          (proj_drop): Dropout(0.0 M, 0.000% Params, 0.0 GMac, 0.000% MACs, p=0.0, inplace=False)
        )
        (drop_path): Identity(0.0 M, 0.000% Params, 0.0 GMac, 0.000% MACs, )
        (norm2): LayerNorm(0.0 M, 0.000% Params, 0.0 GMac, 0.000% MACs, (192,), eps=1e-06, elementwise_affine=True)
        (mlp): Mlp(
          0.148 M, 2.574% Params, 0.029 GMac, 2.691% MACs, 
          (fc1): Linear(0.074 M, 1.288% Params, 0.015 GMac, 1.346% MACs, in_features=192, out_features=384, bias=True)
          (act): GELU(0.0 M, 0.000% Params, 0.0 GMac, 0.000% MACs, )
          (fc2): Linear(0.074 M, 1.285% Params, 0.015 GMac, 1.346% MACs, in_features=384, out_features=192, bias=True)
          (drop): Dropout(0.0 M, 0.000% Params, 0.0 GMac, 0.000% MACs, p=0.0, inplace=False)
        )
        (norm_post): LayerNorm(0.0 M, 0.000% Params, 0.0 GMac, 0.000% MACs, (192,), eps=1e-06, elementwise_affine=True)
        (mlp1): Mlp(
          0.148 M, 2.574% Params, 0.029 GMac, 2.691% MACs, 
          (fc1): Linear(0.074 M, 1.288% Params, 0.015 GMac, 1.346% MACs, in_features=192, out_features=384, bias=True)
          (act): GELU(0.0 M, 0.000% Params, 0.0 GMac, 0.000% MACs, )
          (fc2): Linear(0.074 M, 1.285% Params, 0.015 GMac, 1.346% MACs, in_features=384, out_features=192, bias=True)
          (drop): Dropout(0.0 M, 0.000% Params, 0.0 GMac, 0.000% MACs, p=0.0, inplace=False)
        )
        (norm_pre1): LayerNorm(0.0 M, 0.000% Params, 0.0 GMac, 0.000% MACs, (192,), eps=1e-06, elementwise_affine=True)
        (conv): Conv2d(0.002 M, 0.033% Params, 0.0 GMac, 0.035% MACs, 192, 192, kernel_size=(3, 3), stride=(1, 1), padding=(1, 1), groups=192)
      )
      (1): Block(
        0.446 M, 7.757% Params, 0.088 GMac, 8.108% MACs, 
        (norm1): LayerNorm(0.0 M, 0.000% Params, 0.0 GMac, 0.000% MACs, (192,), eps=1e-06, elementwise_affine=True)
        (attn): Attention(
          0.148 M, 2.577% Params, 0.029 GMac, 2.691% MACs, 
          (qkv): Linear(0.111 M, 1.933% Params, 0.022 GMac, 2.018% MACs, in_features=192, out_features=576, bias=True)
          (attn_drop): Dropout(0.0 M, 0.000% Params, 0.0 GMac, 0.000% MACs, p=0.0, inplace=False)
          (proj): Linear(0.037 M, 0.644% Params, 0.007 GMac, 0.673% MACs, in_features=192, out_features=192, bias=True)
          (proj_drop): Dropout(0.0 M, 0.000% Params, 0.0 GMac, 0.000% MACs, p=0.0, inplace=False)
        )
        (drop_path): DropPath(0.0 M, 0.000% Params, 0.0 GMac, 0.000% MACs, )
        (norm2): LayerNorm(0.0 M, 0.000% Params, 0.0 GMac, 0.000% MACs, (192,), eps=1e-06, elementwise_affine=True)
        (mlp): Mlp(
          0.148 M, 2.574% Params, 0.029 GMac, 2.691% MACs, 
          (fc1): Linear(0.074 M, 1.288% Params, 0.015 GMac, 1.346% MACs, in_features=192, out_features=384, bias=True)
          (act): GELU(0.0 M, 0.000% Params, 0.0 GMac, 0.000% MACs, )
          (fc2): Linear(0.074 M, 1.285% Params, 0.015 GMac, 1.346% MACs, in_features=384, out_features=192, bias=True)
          (drop): Dropout(0.0 M, 0.000% Params, 0.0 GMac, 0.000% MACs, p=0.0, inplace=False)
        )
        (norm_post): LayerNorm(0.0 M, 0.000% Params, 0.0 GMac, 0.000% MACs, (192,), eps=1e-06, elementwise_affine=True)
        (mlp1): Mlp(
          0.148 M, 2.574% Params, 0.029 GMac, 2.691% MACs, 
          (fc1): Linear(0.074 M, 1.288% Params, 0.015 GMac, 1.346% MACs, in_features=192, out_features=384, bias=True)
          (act): GELU(0.0 M, 0.000% Params, 0.0 GMac, 0.000% MACs, )
          (fc2): Linear(0.074 M, 1.285% Params, 0.015 GMac, 1.346% MACs, in_features=384, out_features=192, bias=True)
          (drop): Dropout(0.0 M, 0.000% Params, 0.0 GMac, 0.000% MACs, p=0.0, inplace=False)
        )
        (norm_pre1): LayerNorm(0.0 M, 0.000% Params, 0.0 GMac, 0.000% MACs, (192,), eps=1e-06, elementwise_affine=True)
        (conv): Conv2d(0.002 M, 0.033% Params, 0.0 GMac, 0.035% MACs, 192, 192, kernel_size=(3, 3), stride=(1, 1), padding=(1, 1), groups=192)
      )
      (2): Block(
        0.446 M, 7.757% Params, 0.088 GMac, 8.108% MACs, 
        (norm1): LayerNorm(0.0 M, 0.000% Params, 0.0 GMac, 0.000% MACs, (192,), eps=1e-06, elementwise_affine=True)
        (attn): Attention(
          0.148 M, 2.577% Params, 0.029 GMac, 2.691% MACs, 
          (qkv): Linear(0.111 M, 1.933% Params, 0.022 GMac, 2.018% MACs, in_features=192, out_features=576, bias=True)
          (attn_drop): Dropout(0.0 M, 0.000% Params, 0.0 GMac, 0.000% MACs, p=0.0, inplace=False)
          (proj): Linear(0.037 M, 0.644% Params, 0.007 GMac, 0.673% MACs, in_features=192, out_features=192, bias=True)
          (proj_drop): Dropout(0.0 M, 0.000% Params, 0.0 GMac, 0.000% MACs, p=0.0, inplace=False)
        )
        (drop_path): DropPath(0.0 M, 0.000% Params, 0.0 GMac, 0.000% MACs, )
        (norm2): LayerNorm(0.0 M, 0.000% Params, 0.0 GMac, 0.000% MACs, (192,), eps=1e-06, elementwise_affine=True)
        (mlp): Mlp(
          0.148 M, 2.574% Params, 0.029 GMac, 2.691% MACs, 
          (fc1): Linear(0.074 M, 1.288% Params, 0.015 GMac, 1.346% MACs, in_features=192, out_features=384, bias=True)
          (act): GELU(0.0 M, 0.000% Params, 0.0 GMac, 0.000% MACs, )
          (fc2): Linear(0.074 M, 1.285% Params, 0.015 GMac, 1.346% MACs, in_features=384, out_features=192, bias=True)
          (drop): Dropout(0.0 M, 0.000% Params, 0.0 GMac, 0.000% MACs, p=0.0, inplace=False)
        )
        (norm_post): LayerNorm(0.0 M, 0.000% Params, 0.0 GMac, 0.000% MACs, (192,), eps=1e-06, elementwise_affine=True)
        (mlp1): Mlp(
          0.148 M, 2.574% Params, 0.029 GMac, 2.691% MACs, 
          (fc1): Linear(0.074 M, 1.288% Params, 0.015 GMac, 1.346% MACs, in_features=192, out_features=384, bias=True)
          (act): GELU(0.0 M, 0.000% Params, 0.0 GMac, 0.000% MACs, )
          (fc2): Linear(0.074 M, 1.285% Params, 0.015 GMac, 1.346% MACs, in_features=384, out_features=192, bias=True)
          (drop): Dropout(0.0 M, 0.000% Params, 0.0 GMac, 0.000% MACs, p=0.0, inplace=False)
        )
        (norm_pre1): LayerNorm(0.0 M, 0.000% Params, 0.0 GMac, 0.000% MACs, (192,), eps=1e-06, elementwise_affine=True)
        (conv): Conv2d(0.002 M, 0.033% Params, 0.0 GMac, 0.035% MACs, 192, 192, kernel_size=(3, 3), stride=(1, 1), padding=(1, 1), groups=192)
      )
      (3): Block(
        0.446 M, 7.757% Params, 0.088 GMac, 8.108% MACs, 
        (norm1): LayerNorm(0.0 M, 0.000% Params, 0.0 GMac, 0.000% MACs, (192,), eps=1e-06, elementwise_affine=True)
        (attn): Attention(
          0.148 M, 2.577% Params, 0.029 GMac, 2.691% MACs, 
          (qkv): Linear(0.111 M, 1.933% Params, 0.022 GMac, 2.018% MACs, in_features=192, out_features=576, bias=True)
          (attn_drop): Dropout(0.0 M, 0.000% Params, 0.0 GMac, 0.000% MACs, p=0.0, inplace=False)
          (proj): Linear(0.037 M, 0.644% Params, 0.007 GMac, 0.673% MACs, in_features=192, out_features=192, bias=True)
          (proj_drop): Dropout(0.0 M, 0.000% Params, 0.0 GMac, 0.000% MACs, p=0.0, inplace=False)
        )
        (drop_path): DropPath(0.0 M, 0.000% Params, 0.0 GMac, 0.000% MACs, )
        (norm2): LayerNorm(0.0 M, 0.000% Params, 0.0 GMac, 0.000% MACs, (192,), eps=1e-06, elementwise_affine=True)
        (mlp): Mlp(
          0.148 M, 2.574% Params, 0.029 GMac, 2.691% MACs, 
          (fc1): Linear(0.074 M, 1.288% Params, 0.015 GMac, 1.346% MACs, in_features=192, out_features=384, bias=True)
          (act): GELU(0.0 M, 0.000% Params, 0.0 GMac, 0.000% MACs, )
          (fc2): Linear(0.074 M, 1.285% Params, 0.015 GMac, 1.346% MACs, in_features=384, out_features=192, bias=True)
          (drop): Dropout(0.0 M, 0.000% Params, 0.0 GMac, 0.000% MACs, p=0.0, inplace=False)
        )
        (norm_post): LayerNorm(0.0 M, 0.000% Params, 0.0 GMac, 0.000% MACs, (192,), eps=1e-06, elementwise_affine=True)
        (mlp1): Mlp(
          0.148 M, 2.574% Params, 0.029 GMac, 2.691% MACs, 
          (fc1): Linear(0.074 M, 1.288% Params, 0.015 GMac, 1.346% MACs, in_features=192, out_features=384, bias=True)
          (act): GELU(0.0 M, 0.000% Params, 0.0 GMac, 0.000% MACs, )
          (fc2): Linear(0.074 M, 1.285% Params, 0.015 GMac, 1.346% MACs, in_features=384, out_features=192, bias=True)
          (drop): Dropout(0.0 M, 0.000% Params, 0.0 GMac, 0.000% MACs, p=0.0, inplace=False)
        )
        (norm_pre1): LayerNorm(0.0 M, 0.000% Params, 0.0 GMac, 0.000% MACs, (192,), eps=1e-06, elementwise_affine=True)
        (conv): Conv2d(0.002 M, 0.033% Params, 0.0 GMac, 0.035% MACs, 192, 192, kernel_size=(3, 3), stride=(1, 1), padding=(1, 1), groups=192)
      )
      (4): Block(
        0.446 M, 7.757% Params, 0.088 GMac, 8.108% MACs, 
        (norm1): LayerNorm(0.0 M, 0.000% Params, 0.0 GMac, 0.000% MACs, (192,), eps=1e-06, elementwise_affine=True)
        (attn): Attention(
          0.148 M, 2.577% Params, 0.029 GMac, 2.691% MACs, 
          (qkv): Linear(0.111 M, 1.933% Params, 0.022 GMac, 2.018% MACs, in_features=192, out_features=576, bias=True)
          (attn_drop): Dropout(0.0 M, 0.000% Params, 0.0 GMac, 0.000% MACs, p=0.0, inplace=False)
          (proj): Linear(0.037 M, 0.644% Params, 0.007 GMac, 0.673% MACs, in_features=192, out_features=192, bias=True)
          (proj_drop): Dropout(0.0 M, 0.000% Params, 0.0 GMac, 0.000% MACs, p=0.0, inplace=False)
        )
        (drop_path): DropPath(0.0 M, 0.000% Params, 0.0 GMac, 0.000% MACs, )
        (norm2): LayerNorm(0.0 M, 0.000% Params, 0.0 GMac, 0.000% MACs, (192,), eps=1e-06, elementwise_affine=True)
        (mlp): Mlp(
          0.148 M, 2.574% Params, 0.029 GMac, 2.691% MACs, 
          (fc1): Linear(0.074 M, 1.288% Params, 0.015 GMac, 1.346% MACs, in_features=192, out_features=384, bias=True)
          (act): GELU(0.0 M, 0.000% Params, 0.0 GMac, 0.000% MACs, )
          (fc2): Linear(0.074 M, 1.285% Params, 0.015 GMac, 1.346% MACs, in_features=384, out_features=192, bias=True)
          (drop): Dropout(0.0 M, 0.000% Params, 0.0 GMac, 0.000% MACs, p=0.0, inplace=False)
        )
        (norm_post): LayerNorm(0.0 M, 0.000% Params, 0.0 GMac, 0.000% MACs, (192,), eps=1e-06, elementwise_affine=True)
        (mlp1): Mlp(
          0.148 M, 2.574% Params, 0.029 GMac, 2.691% MACs, 
          (fc1): Linear(0.074 M, 1.288% Params, 0.015 GMac, 1.346% MACs, in_features=192, out_features=384, bias=True)
          (act): GELU(0.0 M, 0.000% Params, 0.0 GMac, 0.000% MACs, )
          (fc2): Linear(0.074 M, 1.285% Params, 0.015 GMac, 1.346% MACs, in_features=384, out_features=192, bias=True)
          (drop): Dropout(0.0 M, 0.000% Params, 0.0 GMac, 0.000% MACs, p=0.0, inplace=False)
        )
        (norm_pre1): LayerNorm(0.0 M, 0.000% Params, 0.0 GMac, 0.000% MACs, (192,), eps=1e-06, elementwise_affine=True)
        (conv): Conv2d(0.002 M, 0.033% Params, 0.0 GMac, 0.035% MACs, 192, 192, kernel_size=(3, 3), stride=(1, 1), padding=(1, 1), groups=192)
      )
      (5): Block(
        0.446 M, 7.757% Params, 0.088 GMac, 8.108% MACs, 
        (norm1): LayerNorm(0.0 M, 0.000% Params, 0.0 GMac, 0.000% MACs, (192,), eps=1e-06, elementwise_affine=True)
        (attn): Attention(
          0.148 M, 2.577% Params, 0.029 GMac, 2.691% MACs, 
          (qkv): Linear(0.111 M, 1.933% Params, 0.022 GMac, 2.018% MACs, in_features=192, out_features=576, bias=True)
          (attn_drop): Dropout(0.0 M, 0.000% Params, 0.0 GMac, 0.000% MACs, p=0.0, inplace=False)
          (proj): Linear(0.037 M, 0.644% Params, 0.007 GMac, 0.673% MACs, in_features=192, out_features=192, bias=True)
          (proj_drop): Dropout(0.0 M, 0.000% Params, 0.0 GMac, 0.000% MACs, p=0.0, inplace=False)
        )
        (drop_path): DropPath(0.0 M, 0.000% Params, 0.0 GMac, 0.000% MACs, )
        (norm2): LayerNorm(0.0 M, 0.000% Params, 0.0 GMac, 0.000% MACs, (192,), eps=1e-06, elementwise_affine=True)
        (mlp): Mlp(
          0.148 M, 2.574% Params, 0.029 GMac, 2.691% MACs, 
          (fc1): Linear(0.074 M, 1.288% Params, 0.015 GMac, 1.346% MACs, in_features=192, out_features=384, bias=True)
          (act): GELU(0.0 M, 0.000% Params, 0.0 GMac, 0.000% MACs, )
          (fc2): Linear(0.074 M, 1.285% Params, 0.015 GMac, 1.346% MACs, in_features=384, out_features=192, bias=True)
          (drop): Dropout(0.0 M, 0.000% Params, 0.0 GMac, 0.000% MACs, p=0.0, inplace=False)
        )
        (norm_post): LayerNorm(0.0 M, 0.000% Params, 0.0 GMac, 0.000% MACs, (192,), eps=1e-06, elementwise_affine=True)
        (mlp1): Mlp(
          0.148 M, 2.574% Params, 0.029 GMac, 2.691% MACs, 
          (fc1): Linear(0.074 M, 1.288% Params, 0.015 GMac, 1.346% MACs, in_features=192, out_features=384, bias=True)
          (act): GELU(0.0 M, 0.000% Params, 0.0 GMac, 0.000% MACs, )
          (fc2): Linear(0.074 M, 1.285% Params, 0.015 GMac, 1.346% MACs, in_features=384, out_features=192, bias=True)
          (drop): Dropout(0.0 M, 0.000% Params, 0.0 GMac, 0.000% MACs, p=0.0, inplace=False)
        )
        (norm_pre1): LayerNorm(0.0 M, 0.000% Params, 0.0 GMac, 0.000% MACs, (192,), eps=1e-06, elementwise_affine=True)
        (conv): Conv2d(0.002 M, 0.033% Params, 0.0 GMac, 0.035% MACs, 192, 192, kernel_size=(3, 3), stride=(1, 1), padding=(1, 1), groups=192)
      )
      (6): Block(
        0.446 M, 7.757% Params, 0.088 GMac, 8.108% MACs, 
        (norm1): LayerNorm(0.0 M, 0.000% Params, 0.0 GMac, 0.000% MACs, (192,), eps=1e-06, elementwise_affine=True)
        (attn): Attention(
          0.148 M, 2.577% Params, 0.029 GMac, 2.691% MACs, 
          (qkv): Linear(0.111 M, 1.933% Params, 0.022 GMac, 2.018% MACs, in_features=192, out_features=576, bias=True)
          (attn_drop): Dropout(0.0 M, 0.000% Params, 0.0 GMac, 0.000% MACs, p=0.0, inplace=False)
          (proj): Linear(0.037 M, 0.644% Params, 0.007 GMac, 0.673% MACs, in_features=192, out_features=192, bias=True)
          (proj_drop): Dropout(0.0 M, 0.000% Params, 0.0 GMac, 0.000% MACs, p=0.0, inplace=False)
        )
        (drop_path): DropPath(0.0 M, 0.000% Params, 0.0 GMac, 0.000% MACs, )
        (norm2): LayerNorm(0.0 M, 0.000% Params, 0.0 GMac, 0.000% MACs, (192,), eps=1e-06, elementwise_affine=True)
        (mlp): Mlp(
          0.148 M, 2.574% Params, 0.029 GMac, 2.691% MACs, 
          (fc1): Linear(0.074 M, 1.288% Params, 0.015 GMac, 1.346% MACs, in_features=192, out_features=384, bias=True)
          (act): GELU(0.0 M, 0.000% Params, 0.0 GMac, 0.000% MACs, )
          (fc2): Linear(0.074 M, 1.285% Params, 0.015 GMac, 1.346% MACs, in_features=384, out_features=192, bias=True)
          (drop): Dropout(0.0 M, 0.000% Params, 0.0 GMac, 0.000% MACs, p=0.0, inplace=False)
        )
        (norm_post): LayerNorm(0.0 M, 0.000% Params, 0.0 GMac, 0.000% MACs, (192,), eps=1e-06, elementwise_affine=True)
        (mlp1): Mlp(
          0.148 M, 2.574% Params, 0.029 GMac, 2.691% MACs, 
          (fc1): Linear(0.074 M, 1.288% Params, 0.015 GMac, 1.346% MACs, in_features=192, out_features=384, bias=True)
          (act): GELU(0.0 M, 0.000% Params, 0.0 GMac, 0.000% MACs, )
          (fc2): Linear(0.074 M, 1.285% Params, 0.015 GMac, 1.346% MACs, in_features=384, out_features=192, bias=True)
          (drop): Dropout(0.0 M, 0.000% Params, 0.0 GMac, 0.000% MACs, p=0.0, inplace=False)
        )
        (norm_pre1): LayerNorm(0.0 M, 0.000% Params, 0.0 GMac, 0.000% MACs, (192,), eps=1e-06, elementwise_affine=True)
        (conv): Conv2d(0.002 M, 0.033% Params, 0.0 GMac, 0.035% MACs, 192, 192, kernel_size=(3, 3), stride=(1, 1), padding=(1, 1), groups=192)
      )
      (7): Block(
        0.446 M, 7.757% Params, 0.088 GMac, 8.108% MACs, 
        (norm1): LayerNorm(0.0 M, 0.000% Params, 0.0 GMac, 0.000% MACs, (192,), eps=1e-06, elementwise_affine=True)
        (attn): Attention(
          0.148 M, 2.577% Params, 0.029 GMac, 2.691% MACs, 
          (qkv): Linear(0.111 M, 1.933% Params, 0.022 GMac, 2.018% MACs, in_features=192, out_features=576, bias=True)
          (attn_drop): Dropout(0.0 M, 0.000% Params, 0.0 GMac, 0.000% MACs, p=0.0, inplace=False)
          (proj): Linear(0.037 M, 0.644% Params, 0.007 GMac, 0.673% MACs, in_features=192, out_features=192, bias=True)
          (proj_drop): Dropout(0.0 M, 0.000% Params, 0.0 GMac, 0.000% MACs, p=0.0, inplace=False)
        )
        (drop_path): DropPath(0.0 M, 0.000% Params, 0.0 GMac, 0.000% MACs, )
        (norm2): LayerNorm(0.0 M, 0.000% Params, 0.0 GMac, 0.000% MACs, (192,), eps=1e-06, elementwise_affine=True)
        (mlp): Mlp(
          0.148 M, 2.574% Params, 0.029 GMac, 2.691% MACs, 
          (fc1): Linear(0.074 M, 1.288% Params, 0.015 GMac, 1.346% MACs, in_features=192, out_features=384, bias=True)
          (act): GELU(0.0 M, 0.000% Params, 0.0 GMac, 0.000% MACs, )
          (fc2): Linear(0.074 M, 1.285% Params, 0.015 GMac, 1.346% MACs, in_features=384, out_features=192, bias=True)
          (drop): Dropout(0.0 M, 0.000% Params, 0.0 GMac, 0.000% MACs, p=0.0, inplace=False)
        )
        (norm_post): LayerNorm(0.0 M, 0.000% Params, 0.0 GMac, 0.000% MACs, (192,), eps=1e-06, elementwise_affine=True)
        (mlp1): Mlp(
          0.148 M, 2.574% Params, 0.029 GMac, 2.691% MACs, 
          (fc1): Linear(0.074 M, 1.288% Params, 0.015 GMac, 1.346% MACs, in_features=192, out_features=384, bias=True)
          (act): GELU(0.0 M, 0.000% Params, 0.0 GMac, 0.000% MACs, )
          (fc2): Linear(0.074 M, 1.285% Params, 0.015 GMac, 1.346% MACs, in_features=384, out_features=192, bias=True)
          (drop): Dropout(0.0 M, 0.000% Params, 0.0 GMac, 0.000% MACs, p=0.0, inplace=False)
        )
        (norm_pre1): LayerNorm(0.0 M, 0.000% Params, 0.0 GMac, 0.000% MACs, (192,), eps=1e-06, elementwise_affine=True)
        (conv): Conv2d(0.002 M, 0.033% Params, 0.0 GMac, 0.035% MACs, 192, 192, kernel_size=(3, 3), stride=(1, 1), padding=(1, 1), groups=192)
      )
      (8): Block(
        0.446 M, 7.757% Params, 0.088 GMac, 8.108% MACs, 
        (norm1): LayerNorm(0.0 M, 0.000% Params, 0.0 GMac, 0.000% MACs, (192,), eps=1e-06, elementwise_affine=True)
        (attn): Attention(
          0.148 M, 2.577% Params, 0.029 GMac, 2.691% MACs, 
          (qkv): Linear(0.111 M, 1.933% Params, 0.022 GMac, 2.018% MACs, in_features=192, out_features=576, bias=True)
          (attn_drop): Dropout(0.0 M, 0.000% Params, 0.0 GMac, 0.000% MACs, p=0.0, inplace=False)
          (proj): Linear(0.037 M, 0.644% Params, 0.007 GMac, 0.673% MACs, in_features=192, out_features=192, bias=True)
          (proj_drop): Dropout(0.0 M, 0.000% Params, 0.0 GMac, 0.000% MACs, p=0.0, inplace=False)
        )
        (drop_path): DropPath(0.0 M, 0.000% Params, 0.0 GMac, 0.000% MACs, )
        (norm2): LayerNorm(0.0 M, 0.000% Params, 0.0 GMac, 0.000% MACs, (192,), eps=1e-06, elementwise_affine=True)
        (mlp): Mlp(
          0.148 M, 2.574% Params, 0.029 GMac, 2.691% MACs, 
          (fc1): Linear(0.074 M, 1.288% Params, 0.015 GMac, 1.346% MACs, in_features=192, out_features=384, bias=True)
          (act): GELU(0.0 M, 0.000% Params, 0.0 GMac, 0.000% MACs, )
          (fc2): Linear(0.074 M, 1.285% Params, 0.015 GMac, 1.346% MACs, in_features=384, out_features=192, bias=True)
          (drop): Dropout(0.0 M, 0.000% Params, 0.0 GMac, 0.000% MACs, p=0.0, inplace=False)
        )
        (norm_post): LayerNorm(0.0 M, 0.000% Params, 0.0 GMac, 0.000% MACs, (192,), eps=1e-06, elementwise_affine=True)
        (mlp1): Mlp(
          0.148 M, 2.574% Params, 0.029 GMac, 2.691% MACs, 
          (fc1): Linear(0.074 M, 1.288% Params, 0.015 GMac, 1.346% MACs, in_features=192, out_features=384, bias=True)
          (act): GELU(0.0 M, 0.000% Params, 0.0 GMac, 0.000% MACs, )
          (fc2): Linear(0.074 M, 1.285% Params, 0.015 GMac, 1.346% MACs, in_features=384, out_features=192, bias=True)
          (drop): Dropout(0.0 M, 0.000% Params, 0.0 GMac, 0.000% MACs, p=0.0, inplace=False)
        )
        (norm_pre1): LayerNorm(0.0 M, 0.000% Params, 0.0 GMac, 0.000% MACs, (192,), eps=1e-06, elementwise_affine=True)
        (conv): Conv2d(0.002 M, 0.033% Params, 0.0 GMac, 0.035% MACs, 192, 192, kernel_size=(3, 3), stride=(1, 1), padding=(1, 1), groups=192)
      )
      (9): Block(
        0.446 M, 7.757% Params, 0.088 GMac, 8.108% MACs, 
        (norm1): LayerNorm(0.0 M, 0.000% Params, 0.0 GMac, 0.000% MACs, (192,), eps=1e-06, elementwise_affine=True)
        (attn): Attention(
          0.148 M, 2.577% Params, 0.029 GMac, 2.691% MACs, 
          (qkv): Linear(0.111 M, 1.933% Params, 0.022 GMac, 2.018% MACs, in_features=192, out_features=576, bias=True)
          (attn_drop): Dropout(0.0 M, 0.000% Params, 0.0 GMac, 0.000% MACs, p=0.0, inplace=False)
          (proj): Linear(0.037 M, 0.644% Params, 0.007 GMac, 0.673% MACs, in_features=192, out_features=192, bias=True)
          (proj_drop): Dropout(0.0 M, 0.000% Params, 0.0 GMac, 0.000% MACs, p=0.0, inplace=False)
        )
        (drop_path): DropPath(0.0 M, 0.000% Params, 0.0 GMac, 0.000% MACs, )
        (norm2): LayerNorm(0.0 M, 0.000% Params, 0.0 GMac, 0.000% MACs, (192,), eps=1e-06, elementwise_affine=True)
        (mlp): Mlp(
          0.148 M, 2.574% Params, 0.029 GMac, 2.691% MACs, 
          (fc1): Linear(0.074 M, 1.288% Params, 0.015 GMac, 1.346% MACs, in_features=192, out_features=384, bias=True)
          (act): GELU(0.0 M, 0.000% Params, 0.0 GMac, 0.000% MACs, )
          (fc2): Linear(0.074 M, 1.285% Params, 0.015 GMac, 1.346% MACs, in_features=384, out_features=192, bias=True)
          (drop): Dropout(0.0 M, 0.000% Params, 0.0 GMac, 0.000% MACs, p=0.0, inplace=False)
        )
        (norm_post): LayerNorm(0.0 M, 0.000% Params, 0.0 GMac, 0.000% MACs, (192,), eps=1e-06, elementwise_affine=True)
        (mlp1): Mlp(
          0.148 M, 2.574% Params, 0.029 GMac, 2.691% MACs, 
          (fc1): Linear(0.074 M, 1.288% Params, 0.015 GMac, 1.346% MACs, in_features=192, out_features=384, bias=True)
          (act): GELU(0.0 M, 0.000% Params, 0.0 GMac, 0.000% MACs, )
          (fc2): Linear(0.074 M, 1.285% Params, 0.015 GMac, 1.346% MACs, in_features=384, out_features=192, bias=True)
          (drop): Dropout(0.0 M, 0.000% Params, 0.0 GMac, 0.000% MACs, p=0.0, inplace=False)
        )
        (norm_pre1): LayerNorm(0.0 M, 0.000% Params, 0.0 GMac, 0.000% MACs, (192,), eps=1e-06, elementwise_affine=True)
        (conv): Conv2d(0.002 M, 0.033% Params, 0.0 GMac, 0.035% MACs, 192, 192, kernel_size=(3, 3), stride=(1, 1), padding=(1, 1), groups=192)
      )
      (10): Block(
        0.446 M, 7.757% Params, 0.088 GMac, 8.108% MACs, 
        (norm1): LayerNorm(0.0 M, 0.000% Params, 0.0 GMac, 0.000% MACs, (192,), eps=1e-06, elementwise_affine=True)
        (attn): Attention(
          0.148 M, 2.577% Params, 0.029 GMac, 2.691% MACs, 
          (qkv): Linear(0.111 M, 1.933% Params, 0.022 GMac, 2.018% MACs, in_features=192, out_features=576, bias=True)
          (attn_drop): Dropout(0.0 M, 0.000% Params, 0.0 GMac, 0.000% MACs, p=0.0, inplace=False)
          (proj): Linear(0.037 M, 0.644% Params, 0.007 GMac, 0.673% MACs, in_features=192, out_features=192, bias=True)
          (proj_drop): Dropout(0.0 M, 0.000% Params, 0.0 GMac, 0.000% MACs, p=0.0, inplace=False)
        )
        (drop_path): DropPath(0.0 M, 0.000% Params, 0.0 GMac, 0.000% MACs, )
        (norm2): LayerNorm(0.0 M, 0.000% Params, 0.0 GMac, 0.000% MACs, (192,), eps=1e-06, elementwise_affine=True)
        (mlp): Mlp(
          0.148 M, 2.574% Params, 0.029 GMac, 2.691% MACs, 
          (fc1): Linear(0.074 M, 1.288% Params, 0.015 GMac, 1.346% MACs, in_features=192, out_features=384, bias=True)
          (act): GELU(0.0 M, 0.000% Params, 0.0 GMac, 0.000% MACs, )
          (fc2): Linear(0.074 M, 1.285% Params, 0.015 GMac, 1.346% MACs, in_features=384, out_features=192, bias=True)
          (drop): Dropout(0.0 M, 0.000% Params, 0.0 GMac, 0.000% MACs, p=0.0, inplace=False)
        )
        (norm_post): LayerNorm(0.0 M, 0.000% Params, 0.0 GMac, 0.000% MACs, (192,), eps=1e-06, elementwise_affine=True)
        (mlp1): Mlp(
          0.148 M, 2.574% Params, 0.029 GMac, 2.691% MACs, 
          (fc1): Linear(0.074 M, 1.288% Params, 0.015 GMac, 1.346% MACs, in_features=192, out_features=384, bias=True)
          (act): GELU(0.0 M, 0.000% Params, 0.0 GMac, 0.000% MACs, )
          (fc2): Linear(0.074 M, 1.285% Params, 0.015 GMac, 1.346% MACs, in_features=384, out_features=192, bias=True)
          (drop): Dropout(0.0 M, 0.000% Params, 0.0 GMac, 0.000% MACs, p=0.0, inplace=False)
        )
        (norm_pre1): LayerNorm(0.0 M, 0.000% Params, 0.0 GMac, 0.000% MACs, (192,), eps=1e-06, elementwise_affine=True)
        (conv): Conv2d(0.002 M, 0.033% Params, 0.0 GMac, 0.035% MACs, 192, 192, kernel_size=(3, 3), stride=(1, 1), padding=(1, 1), groups=192)
      )
      (11): Block(
        0.446 M, 7.757% Params, 0.088 GMac, 8.108% MACs, 
        (norm1): LayerNorm(0.0 M, 0.000% Params, 0.0 GMac, 0.000% MACs, (192,), eps=1e-06, elementwise_affine=True)
        (attn): Attention(
          0.148 M, 2.577% Params, 0.029 GMac, 2.691% MACs, 
          (qkv): Linear(0.111 M, 1.933% Params, 0.022 GMac, 2.018% MACs, in_features=192, out_features=576, bias=True)
          (attn_drop): Dropout(0.0 M, 0.000% Params, 0.0 GMac, 0.000% MACs, p=0.0, inplace=False)
          (proj): Linear(0.037 M, 0.644% Params, 0.007 GMac, 0.673% MACs, in_features=192, out_features=192, bias=True)
          (proj_drop): Dropout(0.0 M, 0.000% Params, 0.0 GMac, 0.000% MACs, p=0.0, inplace=False)
        )
        (drop_path): DropPath(0.0 M, 0.000% Params, 0.0 GMac, 0.000% MACs, )
        (norm2): LayerNorm(0.0 M, 0.000% Params, 0.0 GMac, 0.000% MACs, (192,), eps=1e-06, elementwise_affine=True)
        (mlp): Mlp(
          0.148 M, 2.574% Params, 0.029 GMac, 2.691% MACs, 
          (fc1): Linear(0.074 M, 1.288% Params, 0.015 GMac, 1.346% MACs, in_features=192, out_features=384, bias=True)
          (act): GELU(0.0 M, 0.000% Params, 0.0 GMac, 0.000% MACs, )
          (fc2): Linear(0.074 M, 1.285% Params, 0.015 GMac, 1.346% MACs, in_features=384, out_features=192, bias=True)
          (drop): Dropout(0.0 M, 0.000% Params, 0.0 GMac, 0.000% MACs, p=0.0, inplace=False)
        )
        (norm_post): LayerNorm(0.0 M, 0.000% Params, 0.0 GMac, 0.000% MACs, (192,), eps=1e-06, elementwise_affine=True)
        (mlp1): Mlp(
          0.148 M, 2.574% Params, 0.029 GMac, 2.691% MACs, 
          (fc1): Linear(0.074 M, 1.288% Params, 0.015 GMac, 1.346% MACs, in_features=192, out_features=384, bias=True)
          (act): GELU(0.0 M, 0.000% Params, 0.0 GMac, 0.000% MACs, )
          (fc2): Linear(0.074 M, 1.285% Params, 0.015 GMac, 1.346% MACs, in_features=384, out_features=192, bias=True)
          (drop): Dropout(0.0 M, 0.000% Params, 0.0 GMac, 0.000% MACs, p=0.0, inplace=False)
        )
        (norm_pre1): LayerNorm(0.0 M, 0.000% Params, 0.0 GMac, 0.000% MACs, (192,), eps=1e-06, elementwise_affine=True)
        (conv): Conv2d(0.002 M, 0.033% Params, 0.0 GMac, 0.035% MACs, 192, 192, kernel_size=(3, 3), stride=(1, 1), padding=(1, 1), groups=192)
      )
    )
    (norm): LayerNorm(0.0 M, 0.000% Params, 0.0 GMac, 0.000% MACs, (192,), eps=1e-06, elementwise_affine=True)
    (head): Linear(0.193 M, 3.355% Params, 0.0 GMac, 0.018% MACs, in_features=192, out_features=1000, bias=True)
  )
)
('1.08 GMac', '5.75 M')
4
Start training
Epoch: [0]  [   0/1251]  eta: 4:11:18  lr: 0.000001  loss: 6.9631 (6.9631)  time: 12.0529  data: 9.3014  max mem: 9382
Epoch: [0]  [ 100/1251]  eta: 0:15:45  lr: 0.000001  loss: 6.9454 (6.9459)  time: 0.7580  data: 0.1674  max mem: 9448
Epoch: [0]  [ 200/1251]  eta: 0:14:04  lr: 0.000001  loss: 6.9409 (6.9430)  time: 0.7383  data: 0.1538  max mem: 9448
…
